<?xml version="1.0"?>
<net name="main_graph" version="11">
	<layers>
		<layer id="0" name="images" type="Parameter" version="opset1">
			<data shape="1,3,416,416" element_type="f32" />
			<output>
				<port id="0" precision="FP32" names="images">
					<dim>1</dim>
					<dim>3</dim>
					<dim>416</dim>
					<dim>416</dim>
				</port>
			</output>
		</layer>
		<layer id="1" name="/model.28/Constant_13_output_0" type="Const" version="opset1">
			<data element_type="f32" shape="1, 2, 3549" offset="0" size="28392" />
			<output>
				<port id="0" precision="FP32" names="/model.28/Constant_13_output_0">
					<dim>1</dim>
					<dim>2</dim>
					<dim>3549</dim>
				</port>
			</output>
		</layer>
		<layer id="2" name="images/fq_output_0/input_low" type="Const" version="opset1">
			<data element_type="f32" shape="" offset="28392" size="4" />
			<output>
				<port id="0" precision="FP32" />
			</output>
		</layer>
		<layer id="3" name="images/fq_output_0/input_high" type="Const" version="opset1">
			<data element_type="f32" shape="" offset="28396" size="4" />
			<output>
				<port id="0" precision="FP32" />
			</output>
		</layer>
		<layer id="4" name="images/fq_output_0/output_low" type="Const" version="opset1">
			<data element_type="f32" shape="" offset="28392" size="4" />
			<output>
				<port id="0" precision="FP32" />
			</output>
		</layer>
		<layer id="5" name="images/fq_output_0/output_high" type="Const" version="opset1">
			<data element_type="f32" shape="" offset="28396" size="4" />
			<output>
				<port id="0" precision="FP32" />
			</output>
		</layer>
		<layer id="6" name="images/fq_output_0" type="FakeQuantize" version="opset1">
			<data levels="256" auto_broadcast="numpy" />
			<input>
				<port id="0" precision="FP32">
					<dim>1</dim>
					<dim>3</dim>
					<dim>416</dim>
					<dim>416</dim>
				</port>
				<port id="1" precision="FP32" />
				<port id="2" precision="FP32" />
				<port id="3" precision="FP32" />
				<port id="4" precision="FP32" />
			</input>
			<output>
				<port id="5" precision="FP32">
					<dim>1</dim>
					<dim>3</dim>
					<dim>416</dim>
					<dim>416</dim>
				</port>
			</output>
		</layer>
		<layer id="7" name="Constant_515003" type="Const" version="opset1">
			<data element_type="i8" shape="8, 3, 3, 3" offset="28400" size="216" />
			<output>
				<port id="0" precision="I8">
					<dim>8</dim>
					<dim>3</dim>
					<dim>3</dim>
					<dim>3</dim>
				</port>
			</output>
		</layer>
		<layer id="8" name="Convert_515004" type="Convert" version="opset1">
			<data destination_type="f32" />
			<input>
				<port id="0" precision="I8">
					<dim>8</dim>
					<dim>3</dim>
					<dim>3</dim>
					<dim>3</dim>
				</port>
			</input>
			<output>
				<port id="1" precision="FP32">
					<dim>8</dim>
					<dim>3</dim>
					<dim>3</dim>
					<dim>3</dim>
				</port>
			</output>
		</layer>
		<layer id="9" name="Constant_515005" type="Const" version="opset1">
			<data element_type="f32" shape="8, 1, 1, 1" offset="28616" size="32" />
			<output>
				<port id="0" precision="FP32">
					<dim>8</dim>
					<dim>1</dim>
					<dim>1</dim>
					<dim>1</dim>
				</port>
			</output>
		</layer>
		<layer id="10" name="/model.0/conv/Conv/WithoutBiases/fq_weights_1" type="Multiply" version="opset1">
			<data auto_broadcast="numpy" />
			<input>
				<port id="0" precision="FP32">
					<dim>8</dim>
					<dim>3</dim>
					<dim>3</dim>
					<dim>3</dim>
				</port>
				<port id="1" precision="FP32">
					<dim>8</dim>
					<dim>1</dim>
					<dim>1</dim>
					<dim>1</dim>
				</port>
			</input>
			<output>
				<port id="2" precision="FP32">
					<dim>8</dim>
					<dim>3</dim>
					<dim>3</dim>
					<dim>3</dim>
				</port>
			</output>
		</layer>
		<layer id="11" name="/model.0/conv/Conv/WithoutBiases" type="Convolution" version="opset1">
			<data strides="2, 2" dilations="1, 1" pads_begin="1, 1" pads_end="1, 1" auto_pad="explicit" />
			<input>
				<port id="0" precision="FP32">
					<dim>1</dim>
					<dim>3</dim>
					<dim>416</dim>
					<dim>416</dim>
				</port>
				<port id="1" precision="FP32">
					<dim>8</dim>
					<dim>3</dim>
					<dim>3</dim>
					<dim>3</dim>
				</port>
			</input>
			<output>
				<port id="2" precision="FP32">
					<dim>1</dim>
					<dim>8</dim>
					<dim>208</dim>
					<dim>208</dim>
				</port>
			</output>
		</layer>
		<layer id="12" name="Reshape_260" type="Const" version="opset1">
			<data element_type="f32" shape="1, 8, 1, 1" offset="28648" size="32" />
			<output>
				<port id="0" precision="FP32">
					<dim>1</dim>
					<dim>8</dim>
					<dim>1</dim>
					<dim>1</dim>
				</port>
			</output>
		</layer>
		<layer id="13" name="/model.0/conv/Conv" type="Add" version="opset1">
			<data auto_broadcast="numpy" />
			<input>
				<port id="0" precision="FP32">
					<dim>1</dim>
					<dim>8</dim>
					<dim>208</dim>
					<dim>208</dim>
				</port>
				<port id="1" precision="FP32">
					<dim>1</dim>
					<dim>8</dim>
					<dim>1</dim>
					<dim>1</dim>
				</port>
			</input>
			<output>
				<port id="2" precision="FP32" names="/model.0/conv/Conv_output_0">
					<dim>1</dim>
					<dim>8</dim>
					<dim>208</dim>
					<dim>208</dim>
				</port>
			</output>
		</layer>
		<layer id="14" name="/model.0/act/Mul" type="HSwish" version="opset4">
			<input>
				<port id="0" precision="FP32">
					<dim>1</dim>
					<dim>8</dim>
					<dim>208</dim>
					<dim>208</dim>
				</port>
			</input>
			<output>
				<port id="1" precision="FP32" names="/model.0/act/Mul_output_0">
					<dim>1</dim>
					<dim>8</dim>
					<dim>208</dim>
					<dim>208</dim>
				</port>
			</output>
		</layer>
		<layer id="15" name="/model.0/act/Mul/fq_output_0/input_low" type="Const" version="opset1">
			<data element_type="f32" shape="" offset="28680" size="4" />
			<output>
				<port id="0" precision="FP32" />
			</output>
		</layer>
		<layer id="16" name="/model.0/act/Mul/fq_output_0/input_high" type="Const" version="opset1">
			<data element_type="f32" shape="" offset="28684" size="4" />
			<output>
				<port id="0" precision="FP32" />
			</output>
		</layer>
		<layer id="17" name="/model.0/act/Mul/fq_output_0/output_low" type="Const" version="opset1">
			<data element_type="f32" shape="" offset="28680" size="4" />
			<output>
				<port id="0" precision="FP32" />
			</output>
		</layer>
		<layer id="18" name="/model.0/act/Mul/fq_output_0/output_high" type="Const" version="opset1">
			<data element_type="f32" shape="" offset="28684" size="4" />
			<output>
				<port id="0" precision="FP32" />
			</output>
		</layer>
		<layer id="19" name="/model.0/act/Mul/fq_output_0" type="FakeQuantize" version="opset1">
			<data levels="256" auto_broadcast="numpy" />
			<input>
				<port id="0" precision="FP32">
					<dim>1</dim>
					<dim>8</dim>
					<dim>208</dim>
					<dim>208</dim>
				</port>
				<port id="1" precision="FP32" />
				<port id="2" precision="FP32" />
				<port id="3" precision="FP32" />
				<port id="4" precision="FP32" />
			</input>
			<output>
				<port id="5" precision="FP32">
					<dim>1</dim>
					<dim>8</dim>
					<dim>208</dim>
					<dim>208</dim>
				</port>
			</output>
		</layer>
		<layer id="20" name="Constant_515007" type="Const" version="opset1">
			<data element_type="i8" shape="16, 8, 1, 1" offset="28688" size="128" />
			<output>
				<port id="0" precision="I8">
					<dim>16</dim>
					<dim>8</dim>
					<dim>1</dim>
					<dim>1</dim>
				</port>
			</output>
		</layer>
		<layer id="21" name="Convert_515008" type="Convert" version="opset1">
			<data destination_type="f32" />
			<input>
				<port id="0" precision="I8">
					<dim>16</dim>
					<dim>8</dim>
					<dim>1</dim>
					<dim>1</dim>
				</port>
			</input>
			<output>
				<port id="1" precision="FP32">
					<dim>16</dim>
					<dim>8</dim>
					<dim>1</dim>
					<dim>1</dim>
				</port>
			</output>
		</layer>
		<layer id="22" name="Constant_515009" type="Const" version="opset1">
			<data element_type="f32" shape="16, 1, 1, 1" offset="28816" size="64" />
			<output>
				<port id="0" precision="FP32">
					<dim>16</dim>
					<dim>1</dim>
					<dim>1</dim>
					<dim>1</dim>
				</port>
			</output>
		</layer>
		<layer id="23" name="/model.1/conv/conv.0/Conv/WithoutBiases/fq_weights_1" type="Multiply" version="opset1">
			<data auto_broadcast="numpy" />
			<input>
				<port id="0" precision="FP32">
					<dim>16</dim>
					<dim>8</dim>
					<dim>1</dim>
					<dim>1</dim>
				</port>
				<port id="1" precision="FP32">
					<dim>16</dim>
					<dim>1</dim>
					<dim>1</dim>
					<dim>1</dim>
				</port>
			</input>
			<output>
				<port id="2" precision="FP32">
					<dim>16</dim>
					<dim>8</dim>
					<dim>1</dim>
					<dim>1</dim>
				</port>
			</output>
		</layer>
		<layer id="24" name="/model.1/conv/conv.0/Conv/WithoutBiases" type="Convolution" version="opset1">
			<data strides="1, 1" dilations="1, 1" pads_begin="0, 0" pads_end="0, 0" auto_pad="explicit" />
			<input>
				<port id="0" precision="FP32">
					<dim>1</dim>
					<dim>8</dim>
					<dim>208</dim>
					<dim>208</dim>
				</port>
				<port id="1" precision="FP32">
					<dim>16</dim>
					<dim>8</dim>
					<dim>1</dim>
					<dim>1</dim>
				</port>
			</input>
			<output>
				<port id="2" precision="FP32">
					<dim>1</dim>
					<dim>16</dim>
					<dim>208</dim>
					<dim>208</dim>
				</port>
			</output>
		</layer>
		<layer id="25" name="Reshape_281" type="Const" version="opset1">
			<data element_type="f32" shape="1, 16, 1, 1" offset="28880" size="64" />
			<output>
				<port id="0" precision="FP32">
					<dim>1</dim>
					<dim>16</dim>
					<dim>1</dim>
					<dim>1</dim>
				</port>
			</output>
		</layer>
		<layer id="26" name="/model.1/conv/conv.0/Conv" type="Add" version="opset1">
			<data auto_broadcast="numpy" />
			<input>
				<port id="0" precision="FP32">
					<dim>1</dim>
					<dim>16</dim>
					<dim>208</dim>
					<dim>208</dim>
				</port>
				<port id="1" precision="FP32">
					<dim>1</dim>
					<dim>16</dim>
					<dim>1</dim>
					<dim>1</dim>
				</port>
			</input>
			<output>
				<port id="2" precision="FP32" names="/model.1/conv/conv.0/Conv_output_0">
					<dim>1</dim>
					<dim>16</dim>
					<dim>208</dim>
					<dim>208</dim>
				</port>
			</output>
		</layer>
		<layer id="27" name="/model.1/conv/conv.2/Relu" type="ReLU" version="opset1">
			<input>
				<port id="0" precision="FP32">
					<dim>1</dim>
					<dim>16</dim>
					<dim>208</dim>
					<dim>208</dim>
				</port>
			</input>
			<output>
				<port id="1" precision="FP32" names="/model.1/conv/conv.2/Relu_output_0">
					<dim>1</dim>
					<dim>16</dim>
					<dim>208</dim>
					<dim>208</dim>
				</port>
			</output>
		</layer>
		<layer id="28" name="/model.1/conv/conv.2/Relu/fq_output_0/input_low" type="Const" version="opset1">
			<data element_type="f32" shape="1, 16, 1, 1" offset="28944" size="64" />
			<output>
				<port id="0" precision="FP32">
					<dim>1</dim>
					<dim>16</dim>
					<dim>1</dim>
					<dim>1</dim>
				</port>
			</output>
		</layer>
		<layer id="29" name="/model.1/conv/conv.2/Relu/fq_output_0/input_high" type="Const" version="opset1">
			<data element_type="f32" shape="1, 16, 1, 1" offset="29008" size="64" />
			<output>
				<port id="0" precision="FP32">
					<dim>1</dim>
					<dim>16</dim>
					<dim>1</dim>
					<dim>1</dim>
				</port>
			</output>
		</layer>
		<layer id="30" name="/model.1/conv/conv.2/Relu/fq_output_0/output_low" type="Const" version="opset1">
			<data element_type="f32" shape="1, 16, 1, 1" offset="28944" size="64" />
			<output>
				<port id="0" precision="FP32">
					<dim>1</dim>
					<dim>16</dim>
					<dim>1</dim>
					<dim>1</dim>
				</port>
			</output>
		</layer>
		<layer id="31" name="/model.1/conv/conv.2/Relu/fq_output_0/output_high" type="Const" version="opset1">
			<data element_type="f32" shape="1, 16, 1, 1" offset="29008" size="64" />
			<output>
				<port id="0" precision="FP32">
					<dim>1</dim>
					<dim>16</dim>
					<dim>1</dim>
					<dim>1</dim>
				</port>
			</output>
		</layer>
		<layer id="32" name="/model.1/conv/conv.2/Relu/fq_output_0" type="FakeQuantize" version="opset1">
			<data levels="256" auto_broadcast="numpy" />
			<input>
				<port id="0" precision="FP32">
					<dim>1</dim>
					<dim>16</dim>
					<dim>208</dim>
					<dim>208</dim>
				</port>
				<port id="1" precision="FP32">
					<dim>1</dim>
					<dim>16</dim>
					<dim>1</dim>
					<dim>1</dim>
				</port>
				<port id="2" precision="FP32">
					<dim>1</dim>
					<dim>16</dim>
					<dim>1</dim>
					<dim>1</dim>
				</port>
				<port id="3" precision="FP32">
					<dim>1</dim>
					<dim>16</dim>
					<dim>1</dim>
					<dim>1</dim>
				</port>
				<port id="4" precision="FP32">
					<dim>1</dim>
					<dim>16</dim>
					<dim>1</dim>
					<dim>1</dim>
				</port>
			</input>
			<output>
				<port id="5" precision="FP32">
					<dim>1</dim>
					<dim>16</dim>
					<dim>208</dim>
					<dim>208</dim>
				</port>
			</output>
		</layer>
		<layer id="33" name="Constant_515011" type="Const" version="opset1">
			<data element_type="i8" shape="16, 1, 1, 3, 3" offset="29072" size="144" />
			<output>
				<port id="0" precision="I8">
					<dim>16</dim>
					<dim>1</dim>
					<dim>1</dim>
					<dim>3</dim>
					<dim>3</dim>
				</port>
			</output>
		</layer>
		<layer id="34" name="Convert_515012" type="Convert" version="opset1">
			<data destination_type="f32" />
			<input>
				<port id="0" precision="I8">
					<dim>16</dim>
					<dim>1</dim>
					<dim>1</dim>
					<dim>3</dim>
					<dim>3</dim>
				</port>
			</input>
			<output>
				<port id="1" precision="FP32">
					<dim>16</dim>
					<dim>1</dim>
					<dim>1</dim>
					<dim>3</dim>
					<dim>3</dim>
				</port>
			</output>
		</layer>
		<layer id="35" name="Constant_515013" type="Const" version="opset1">
			<data element_type="f32" shape="16, 1, 1, 1, 1" offset="29216" size="64" />
			<output>
				<port id="0" precision="FP32">
					<dim>16</dim>
					<dim>1</dim>
					<dim>1</dim>
					<dim>1</dim>
					<dim>1</dim>
				</port>
			</output>
		</layer>
		<layer id="36" name="/model.1/conv/conv.3/Conv/WithoutBiases/fq_weights_1" type="Multiply" version="opset1">
			<data auto_broadcast="numpy" />
			<input>
				<port id="0" precision="FP32">
					<dim>16</dim>
					<dim>1</dim>
					<dim>1</dim>
					<dim>3</dim>
					<dim>3</dim>
				</port>
				<port id="1" precision="FP32">
					<dim>16</dim>
					<dim>1</dim>
					<dim>1</dim>
					<dim>1</dim>
					<dim>1</dim>
				</port>
			</input>
			<output>
				<port id="2" precision="FP32">
					<dim>16</dim>
					<dim>1</dim>
					<dim>1</dim>
					<dim>3</dim>
					<dim>3</dim>
				</port>
			</output>
		</layer>
		<layer id="37" name="/model.1/conv/conv.3/Conv/WithoutBiases" type="GroupConvolution" version="opset1">
			<data strides="1, 1" pads_begin="1, 1" pads_end="1, 1" dilations="1, 1" auto_pad="explicit" />
			<input>
				<port id="0" precision="FP32">
					<dim>1</dim>
					<dim>16</dim>
					<dim>208</dim>
					<dim>208</dim>
				</port>
				<port id="1" precision="FP32">
					<dim>16</dim>
					<dim>1</dim>
					<dim>1</dim>
					<dim>3</dim>
					<dim>3</dim>
				</port>
			</input>
			<output>
				<port id="2" precision="FP32">
					<dim>1</dim>
					<dim>16</dim>
					<dim>208</dim>
					<dim>208</dim>
				</port>
			</output>
		</layer>
		<layer id="38" name="Reshape_345" type="Const" version="opset1">
			<data element_type="f32" shape="1, 16, 1, 1" offset="29280" size="64" />
			<output>
				<port id="0" precision="FP32">
					<dim>1</dim>
					<dim>16</dim>
					<dim>1</dim>
					<dim>1</dim>
				</port>
			</output>
		</layer>
		<layer id="39" name="/model.1/conv/conv.3/Conv" type="Add" version="opset1">
			<data auto_broadcast="numpy" />
			<input>
				<port id="0" precision="FP32">
					<dim>1</dim>
					<dim>16</dim>
					<dim>208</dim>
					<dim>208</dim>
				</port>
				<port id="1" precision="FP32">
					<dim>1</dim>
					<dim>16</dim>
					<dim>1</dim>
					<dim>1</dim>
				</port>
			</input>
			<output>
				<port id="2" precision="FP32" names="/model.1/conv/conv.3/Conv_output_0">
					<dim>1</dim>
					<dim>16</dim>
					<dim>208</dim>
					<dim>208</dim>
				</port>
			</output>
		</layer>
		<layer id="40" name="/model.1/conv/conv.6/Relu" type="ReLU" version="opset1">
			<input>
				<port id="0" precision="FP32">
					<dim>1</dim>
					<dim>16</dim>
					<dim>208</dim>
					<dim>208</dim>
				</port>
			</input>
			<output>
				<port id="1" precision="FP32" names="/model.1/conv/conv.6/Relu_output_0">
					<dim>1</dim>
					<dim>16</dim>
					<dim>208</dim>
					<dim>208</dim>
				</port>
			</output>
		</layer>
		<layer id="41" name="/model.1/conv/conv.6/Relu/fq_output_0/input_low" type="Const" version="opset1">
			<data element_type="f32" shape="" offset="28392" size="4" />
			<output>
				<port id="0" precision="FP32" />
			</output>
		</layer>
		<layer id="42" name="/model.1/conv/conv.6/Relu/fq_output_0/input_high" type="Const" version="opset1">
			<data element_type="f32" shape="" offset="29344" size="4" />
			<output>
				<port id="0" precision="FP32" />
			</output>
		</layer>
		<layer id="43" name="/model.1/conv/conv.6/Relu/fq_output_0/output_low" type="Const" version="opset1">
			<data element_type="f32" shape="" offset="28392" size="4" />
			<output>
				<port id="0" precision="FP32" />
			</output>
		</layer>
		<layer id="44" name="/model.1/conv/conv.6/Relu/fq_output_0/output_high" type="Const" version="opset1">
			<data element_type="f32" shape="" offset="29344" size="4" />
			<output>
				<port id="0" precision="FP32" />
			</output>
		</layer>
		<layer id="45" name="/model.1/conv/conv.6/Relu/fq_output_0" type="FakeQuantize" version="opset1">
			<data levels="256" auto_broadcast="numpy" />
			<input>
				<port id="0" precision="FP32">
					<dim>1</dim>
					<dim>16</dim>
					<dim>208</dim>
					<dim>208</dim>
				</port>
				<port id="1" precision="FP32" />
				<port id="2" precision="FP32" />
				<port id="3" precision="FP32" />
				<port id="4" precision="FP32" />
			</input>
			<output>
				<port id="5" precision="FP32">
					<dim>1</dim>
					<dim>16</dim>
					<dim>208</dim>
					<dim>208</dim>
				</port>
			</output>
		</layer>
		<layer id="46" name="Constant_515015" type="Const" version="opset1">
			<data element_type="i8" shape="8, 16, 1, 1" offset="29348" size="128" />
			<output>
				<port id="0" precision="I8">
					<dim>8</dim>
					<dim>16</dim>
					<dim>1</dim>
					<dim>1</dim>
				</port>
			</output>
		</layer>
		<layer id="47" name="Convert_515016" type="Convert" version="opset1">
			<data destination_type="f32" />
			<input>
				<port id="0" precision="I8">
					<dim>8</dim>
					<dim>16</dim>
					<dim>1</dim>
					<dim>1</dim>
				</port>
			</input>
			<output>
				<port id="1" precision="FP32">
					<dim>8</dim>
					<dim>16</dim>
					<dim>1</dim>
					<dim>1</dim>
				</port>
			</output>
		</layer>
		<layer id="48" name="Constant_515017" type="Const" version="opset1">
			<data element_type="f32" shape="8, 1, 1, 1" offset="29476" size="32" />
			<output>
				<port id="0" precision="FP32">
					<dim>8</dim>
					<dim>1</dim>
					<dim>1</dim>
					<dim>1</dim>
				</port>
			</output>
		</layer>
		<layer id="49" name="/model.1/conv/conv.7/Conv/WithoutBiases/fq_weights_1" type="Multiply" version="opset1">
			<data auto_broadcast="numpy" />
			<input>
				<port id="0" precision="FP32">
					<dim>8</dim>
					<dim>16</dim>
					<dim>1</dim>
					<dim>1</dim>
				</port>
				<port id="1" precision="FP32">
					<dim>8</dim>
					<dim>1</dim>
					<dim>1</dim>
					<dim>1</dim>
				</port>
			</input>
			<output>
				<port id="2" precision="FP32">
					<dim>8</dim>
					<dim>16</dim>
					<dim>1</dim>
					<dim>1</dim>
				</port>
			</output>
		</layer>
		<layer id="50" name="/model.1/conv/conv.7/Conv/WithoutBiases" type="Convolution" version="opset1">
			<data strides="1, 1" dilations="1, 1" pads_begin="0, 0" pads_end="0, 0" auto_pad="explicit" />
			<input>
				<port id="0" precision="FP32">
					<dim>1</dim>
					<dim>16</dim>
					<dim>208</dim>
					<dim>208</dim>
				</port>
				<port id="1" precision="FP32">
					<dim>8</dim>
					<dim>16</dim>
					<dim>1</dim>
					<dim>1</dim>
				</port>
			</input>
			<output>
				<port id="2" precision="FP32">
					<dim>1</dim>
					<dim>8</dim>
					<dim>208</dim>
					<dim>208</dim>
				</port>
			</output>
		</layer>
		<layer id="51" name="Reshape_362" type="Const" version="opset1">
			<data element_type="f32" shape="1, 8, 1, 1" offset="29508" size="32" />
			<output>
				<port id="0" precision="FP32">
					<dim>1</dim>
					<dim>8</dim>
					<dim>1</dim>
					<dim>1</dim>
				</port>
			</output>
		</layer>
		<layer id="52" name="/model.1/conv/conv.7/Conv" type="Add" version="opset1">
			<data auto_broadcast="numpy" />
			<input>
				<port id="0" precision="FP32">
					<dim>1</dim>
					<dim>8</dim>
					<dim>208</dim>
					<dim>208</dim>
				</port>
				<port id="1" precision="FP32">
					<dim>1</dim>
					<dim>8</dim>
					<dim>1</dim>
					<dim>1</dim>
				</port>
			</input>
			<output>
				<port id="2" precision="FP32" names="/model.1/conv/conv.7/Conv_output_0">
					<dim>1</dim>
					<dim>8</dim>
					<dim>208</dim>
					<dim>208</dim>
				</port>
			</output>
		</layer>
		<layer id="53" name="/model.1/conv/conv.7/Conv/fq_output_0/input_low" type="Const" version="opset1">
			<data element_type="f32" shape="" offset="29540" size="4" />
			<output>
				<port id="0" precision="FP32" />
			</output>
		</layer>
		<layer id="54" name="/model.1/conv/conv.7/Conv/fq_output_0/input_high" type="Const" version="opset1">
			<data element_type="f32" shape="" offset="29544" size="4" />
			<output>
				<port id="0" precision="FP32" />
			</output>
		</layer>
		<layer id="55" name="/model.1/conv/conv.7/Conv/fq_output_0/output_low" type="Const" version="opset1">
			<data element_type="f32" shape="" offset="29540" size="4" />
			<output>
				<port id="0" precision="FP32" />
			</output>
		</layer>
		<layer id="56" name="/model.1/conv/conv.7/Conv/fq_output_0/output_high" type="Const" version="opset1">
			<data element_type="f32" shape="" offset="29544" size="4" />
			<output>
				<port id="0" precision="FP32" />
			</output>
		</layer>
		<layer id="57" name="/model.1/conv/conv.7/Conv/fq_output_0" type="FakeQuantize" version="opset1">
			<data levels="256" auto_broadcast="numpy" />
			<input>
				<port id="0" precision="FP32">
					<dim>1</dim>
					<dim>8</dim>
					<dim>208</dim>
					<dim>208</dim>
				</port>
				<port id="1" precision="FP32" />
				<port id="2" precision="FP32" />
				<port id="3" precision="FP32" />
				<port id="4" precision="FP32" />
			</input>
			<output>
				<port id="5" precision="FP32">
					<dim>1</dim>
					<dim>8</dim>
					<dim>208</dim>
					<dim>208</dim>
				</port>
			</output>
		</layer>
		<layer id="58" name="/model.1/Add" type="Add" version="opset1">
			<data auto_broadcast="numpy" />
			<input>
				<port id="0" precision="FP32">
					<dim>1</dim>
					<dim>8</dim>
					<dim>208</dim>
					<dim>208</dim>
				</port>
				<port id="1" precision="FP32">
					<dim>1</dim>
					<dim>8</dim>
					<dim>208</dim>
					<dim>208</dim>
				</port>
			</input>
			<output>
				<port id="2" precision="FP32" names="/model.1/Add_output_0">
					<dim>1</dim>
					<dim>8</dim>
					<dim>208</dim>
					<dim>208</dim>
				</port>
			</output>
		</layer>
		<layer id="59" name="/model.1/Add/fq_output_0/input_low" type="Const" version="opset1">
			<data element_type="f32" shape="" offset="29548" size="4" />
			<output>
				<port id="0" precision="FP32" />
			</output>
		</layer>
		<layer id="60" name="/model.1/Add/fq_output_0/input_high" type="Const" version="opset1">
			<data element_type="f32" shape="" offset="29552" size="4" />
			<output>
				<port id="0" precision="FP32" />
			</output>
		</layer>
		<layer id="61" name="/model.1/Add/fq_output_0/output_low" type="Const" version="opset1">
			<data element_type="f32" shape="" offset="29548" size="4" />
			<output>
				<port id="0" precision="FP32" />
			</output>
		</layer>
		<layer id="62" name="/model.1/Add/fq_output_0/output_high" type="Const" version="opset1">
			<data element_type="f32" shape="" offset="29552" size="4" />
			<output>
				<port id="0" precision="FP32" />
			</output>
		</layer>
		<layer id="63" name="/model.1/Add/fq_output_0" type="FakeQuantize" version="opset1">
			<data levels="256" auto_broadcast="numpy" />
			<input>
				<port id="0" precision="FP32">
					<dim>1</dim>
					<dim>8</dim>
					<dim>208</dim>
					<dim>208</dim>
				</port>
				<port id="1" precision="FP32" />
				<port id="2" precision="FP32" />
				<port id="3" precision="FP32" />
				<port id="4" precision="FP32" />
			</input>
			<output>
				<port id="5" precision="FP32">
					<dim>1</dim>
					<dim>8</dim>
					<dim>208</dim>
					<dim>208</dim>
				</port>
			</output>
		</layer>
		<layer id="64" name="Constant_515019" type="Const" version="opset1">
			<data element_type="i8" shape="64, 8, 1, 1" offset="29556" size="512" />
			<output>
				<port id="0" precision="I8">
					<dim>64</dim>
					<dim>8</dim>
					<dim>1</dim>
					<dim>1</dim>
				</port>
			</output>
		</layer>
		<layer id="65" name="Convert_515020" type="Convert" version="opset1">
			<data destination_type="f32" />
			<input>
				<port id="0" precision="I8">
					<dim>64</dim>
					<dim>8</dim>
					<dim>1</dim>
					<dim>1</dim>
				</port>
			</input>
			<output>
				<port id="1" precision="FP32">
					<dim>64</dim>
					<dim>8</dim>
					<dim>1</dim>
					<dim>1</dim>
				</port>
			</output>
		</layer>
		<layer id="66" name="Constant_515021" type="Const" version="opset1">
			<data element_type="f32" shape="64, 1, 1, 1" offset="30068" size="256" />
			<output>
				<port id="0" precision="FP32">
					<dim>64</dim>
					<dim>1</dim>
					<dim>1</dim>
					<dim>1</dim>
				</port>
			</output>
		</layer>
		<layer id="67" name="/model.2/conv/conv.0/Conv/WithoutBiases/fq_weights_1" type="Multiply" version="opset1">
			<data auto_broadcast="numpy" />
			<input>
				<port id="0" precision="FP32">
					<dim>64</dim>
					<dim>8</dim>
					<dim>1</dim>
					<dim>1</dim>
				</port>
				<port id="1" precision="FP32">
					<dim>64</dim>
					<dim>1</dim>
					<dim>1</dim>
					<dim>1</dim>
				</port>
			</input>
			<output>
				<port id="2" precision="FP32">
					<dim>64</dim>
					<dim>8</dim>
					<dim>1</dim>
					<dim>1</dim>
				</port>
			</output>
		</layer>
		<layer id="68" name="/model.2/conv/conv.0/Conv/WithoutBiases" type="Convolution" version="opset1">
			<data strides="1, 1" dilations="1, 1" pads_begin="0, 0" pads_end="0, 0" auto_pad="explicit" />
			<input>
				<port id="0" precision="FP32">
					<dim>1</dim>
					<dim>8</dim>
					<dim>208</dim>
					<dim>208</dim>
				</port>
				<port id="1" precision="FP32">
					<dim>64</dim>
					<dim>8</dim>
					<dim>1</dim>
					<dim>1</dim>
				</port>
			</input>
			<output>
				<port id="2" precision="FP32">
					<dim>1</dim>
					<dim>64</dim>
					<dim>208</dim>
					<dim>208</dim>
				</port>
			</output>
		</layer>
		<layer id="69" name="Reshape_379" type="Const" version="opset1">
			<data element_type="f32" shape="1, 64, 1, 1" offset="30324" size="256" />
			<output>
				<port id="0" precision="FP32">
					<dim>1</dim>
					<dim>64</dim>
					<dim>1</dim>
					<dim>1</dim>
				</port>
			</output>
		</layer>
		<layer id="70" name="/model.2/conv/conv.0/Conv" type="Add" version="opset1">
			<data auto_broadcast="numpy" />
			<input>
				<port id="0" precision="FP32">
					<dim>1</dim>
					<dim>64</dim>
					<dim>208</dim>
					<dim>208</dim>
				</port>
				<port id="1" precision="FP32">
					<dim>1</dim>
					<dim>64</dim>
					<dim>1</dim>
					<dim>1</dim>
				</port>
			</input>
			<output>
				<port id="2" precision="FP32" names="/model.2/conv/conv.0/Conv_output_0">
					<dim>1</dim>
					<dim>64</dim>
					<dim>208</dim>
					<dim>208</dim>
				</port>
			</output>
		</layer>
		<layer id="71" name="/model.2/conv/conv.2/Relu" type="ReLU" version="opset1">
			<input>
				<port id="0" precision="FP32">
					<dim>1</dim>
					<dim>64</dim>
					<dim>208</dim>
					<dim>208</dim>
				</port>
			</input>
			<output>
				<port id="1" precision="FP32" names="/model.2/conv/conv.2/Relu_output_0">
					<dim>1</dim>
					<dim>64</dim>
					<dim>208</dim>
					<dim>208</dim>
				</port>
			</output>
		</layer>
		<layer id="72" name="/model.2/conv/conv.2/Relu/fq_output_0/input_low" type="Const" version="opset1">
			<data element_type="f32" shape="1, 64, 1, 1" offset="30580" size="256" />
			<output>
				<port id="0" precision="FP32">
					<dim>1</dim>
					<dim>64</dim>
					<dim>1</dim>
					<dim>1</dim>
				</port>
			</output>
		</layer>
		<layer id="73" name="/model.2/conv/conv.2/Relu/fq_output_0/input_high" type="Const" version="opset1">
			<data element_type="f32" shape="1, 64, 1, 1" offset="30836" size="256" />
			<output>
				<port id="0" precision="FP32">
					<dim>1</dim>
					<dim>64</dim>
					<dim>1</dim>
					<dim>1</dim>
				</port>
			</output>
		</layer>
		<layer id="74" name="/model.2/conv/conv.2/Relu/fq_output_0/output_low" type="Const" version="opset1">
			<data element_type="f32" shape="1, 64, 1, 1" offset="30580" size="256" />
			<output>
				<port id="0" precision="FP32">
					<dim>1</dim>
					<dim>64</dim>
					<dim>1</dim>
					<dim>1</dim>
				</port>
			</output>
		</layer>
		<layer id="75" name="/model.2/conv/conv.2/Relu/fq_output_0/output_high" type="Const" version="opset1">
			<data element_type="f32" shape="1, 64, 1, 1" offset="30836" size="256" />
			<output>
				<port id="0" precision="FP32">
					<dim>1</dim>
					<dim>64</dim>
					<dim>1</dim>
					<dim>1</dim>
				</port>
			</output>
		</layer>
		<layer id="76" name="/model.2/conv/conv.2/Relu/fq_output_0" type="FakeQuantize" version="opset1">
			<data levels="256" auto_broadcast="numpy" />
			<input>
				<port id="0" precision="FP32">
					<dim>1</dim>
					<dim>64</dim>
					<dim>208</dim>
					<dim>208</dim>
				</port>
				<port id="1" precision="FP32">
					<dim>1</dim>
					<dim>64</dim>
					<dim>1</dim>
					<dim>1</dim>
				</port>
				<port id="2" precision="FP32">
					<dim>1</dim>
					<dim>64</dim>
					<dim>1</dim>
					<dim>1</dim>
				</port>
				<port id="3" precision="FP32">
					<dim>1</dim>
					<dim>64</dim>
					<dim>1</dim>
					<dim>1</dim>
				</port>
				<port id="4" precision="FP32">
					<dim>1</dim>
					<dim>64</dim>
					<dim>1</dim>
					<dim>1</dim>
				</port>
			</input>
			<output>
				<port id="5" precision="FP32">
					<dim>1</dim>
					<dim>64</dim>
					<dim>208</dim>
					<dim>208</dim>
				</port>
			</output>
		</layer>
		<layer id="77" name="Constant_515023" type="Const" version="opset1">
			<data element_type="i8" shape="64, 1, 1, 3, 3" offset="31092" size="576" />
			<output>
				<port id="0" precision="I8">
					<dim>64</dim>
					<dim>1</dim>
					<dim>1</dim>
					<dim>3</dim>
					<dim>3</dim>
				</port>
			</output>
		</layer>
		<layer id="78" name="Convert_515024" type="Convert" version="opset1">
			<data destination_type="f32" />
			<input>
				<port id="0" precision="I8">
					<dim>64</dim>
					<dim>1</dim>
					<dim>1</dim>
					<dim>3</dim>
					<dim>3</dim>
				</port>
			</input>
			<output>
				<port id="1" precision="FP32">
					<dim>64</dim>
					<dim>1</dim>
					<dim>1</dim>
					<dim>3</dim>
					<dim>3</dim>
				</port>
			</output>
		</layer>
		<layer id="79" name="Constant_515025" type="Const" version="opset1">
			<data element_type="f32" shape="64, 1, 1, 1, 1" offset="31668" size="256" />
			<output>
				<port id="0" precision="FP32">
					<dim>64</dim>
					<dim>1</dim>
					<dim>1</dim>
					<dim>1</dim>
					<dim>1</dim>
				</port>
			</output>
		</layer>
		<layer id="80" name="/model.2/conv/conv.3/Conv/WithoutBiases/fq_weights_1" type="Multiply" version="opset1">
			<data auto_broadcast="numpy" />
			<input>
				<port id="0" precision="FP32">
					<dim>64</dim>
					<dim>1</dim>
					<dim>1</dim>
					<dim>3</dim>
					<dim>3</dim>
				</port>
				<port id="1" precision="FP32">
					<dim>64</dim>
					<dim>1</dim>
					<dim>1</dim>
					<dim>1</dim>
					<dim>1</dim>
				</port>
			</input>
			<output>
				<port id="2" precision="FP32">
					<dim>64</dim>
					<dim>1</dim>
					<dim>1</dim>
					<dim>3</dim>
					<dim>3</dim>
				</port>
			</output>
		</layer>
		<layer id="81" name="/model.2/conv/conv.3/Conv/WithoutBiases" type="GroupConvolution" version="opset1">
			<data strides="2, 2" pads_begin="1, 1" pads_end="1, 1" dilations="1, 1" auto_pad="explicit" />
			<input>
				<port id="0" precision="FP32">
					<dim>1</dim>
					<dim>64</dim>
					<dim>208</dim>
					<dim>208</dim>
				</port>
				<port id="1" precision="FP32">
					<dim>64</dim>
					<dim>1</dim>
					<dim>1</dim>
					<dim>3</dim>
					<dim>3</dim>
				</port>
			</input>
			<output>
				<port id="2" precision="FP32">
					<dim>1</dim>
					<dim>64</dim>
					<dim>104</dim>
					<dim>104</dim>
				</port>
			</output>
		</layer>
		<layer id="82" name="Reshape_443" type="Const" version="opset1">
			<data element_type="f32" shape="1, 64, 1, 1" offset="31924" size="256" />
			<output>
				<port id="0" precision="FP32">
					<dim>1</dim>
					<dim>64</dim>
					<dim>1</dim>
					<dim>1</dim>
				</port>
			</output>
		</layer>
		<layer id="83" name="/model.2/conv/conv.3/Conv" type="Add" version="opset1">
			<data auto_broadcast="numpy" />
			<input>
				<port id="0" precision="FP32">
					<dim>1</dim>
					<dim>64</dim>
					<dim>104</dim>
					<dim>104</dim>
				</port>
				<port id="1" precision="FP32">
					<dim>1</dim>
					<dim>64</dim>
					<dim>1</dim>
					<dim>1</dim>
				</port>
			</input>
			<output>
				<port id="2" precision="FP32" names="/model.2/conv/conv.3/Conv_output_0">
					<dim>1</dim>
					<dim>64</dim>
					<dim>104</dim>
					<dim>104</dim>
				</port>
			</output>
		</layer>
		<layer id="84" name="/model.2/conv/conv.6/Relu" type="ReLU" version="opset1">
			<input>
				<port id="0" precision="FP32">
					<dim>1</dim>
					<dim>64</dim>
					<dim>104</dim>
					<dim>104</dim>
				</port>
			</input>
			<output>
				<port id="1" precision="FP32" names="/model.2/conv/conv.6/Relu_output_0">
					<dim>1</dim>
					<dim>64</dim>
					<dim>104</dim>
					<dim>104</dim>
				</port>
			</output>
		</layer>
		<layer id="85" name="/model.2/conv/conv.6/Relu/fq_output_0/input_low" type="Const" version="opset1">
			<data element_type="f32" shape="" offset="28392" size="4" />
			<output>
				<port id="0" precision="FP32" />
			</output>
		</layer>
		<layer id="86" name="/model.2/conv/conv.6/Relu/fq_output_0/input_high" type="Const" version="opset1">
			<data element_type="f32" shape="" offset="32180" size="4" />
			<output>
				<port id="0" precision="FP32" />
			</output>
		</layer>
		<layer id="87" name="/model.2/conv/conv.6/Relu/fq_output_0/output_low" type="Const" version="opset1">
			<data element_type="f32" shape="" offset="28392" size="4" />
			<output>
				<port id="0" precision="FP32" />
			</output>
		</layer>
		<layer id="88" name="/model.2/conv/conv.6/Relu/fq_output_0/output_high" type="Const" version="opset1">
			<data element_type="f32" shape="" offset="32180" size="4" />
			<output>
				<port id="0" precision="FP32" />
			</output>
		</layer>
		<layer id="89" name="/model.2/conv/conv.6/Relu/fq_output_0" type="FakeQuantize" version="opset1">
			<data levels="256" auto_broadcast="numpy" />
			<input>
				<port id="0" precision="FP32">
					<dim>1</dim>
					<dim>64</dim>
					<dim>104</dim>
					<dim>104</dim>
				</port>
				<port id="1" precision="FP32" />
				<port id="2" precision="FP32" />
				<port id="3" precision="FP32" />
				<port id="4" precision="FP32" />
			</input>
			<output>
				<port id="5" precision="FP32">
					<dim>1</dim>
					<dim>64</dim>
					<dim>104</dim>
					<dim>104</dim>
				</port>
			</output>
		</layer>
		<layer id="90" name="Constant_515027" type="Const" version="opset1">
			<data element_type="i8" shape="8, 64, 1, 1" offset="32184" size="512" />
			<output>
				<port id="0" precision="I8">
					<dim>8</dim>
					<dim>64</dim>
					<dim>1</dim>
					<dim>1</dim>
				</port>
			</output>
		</layer>
		<layer id="91" name="Convert_515028" type="Convert" version="opset1">
			<data destination_type="f32" />
			<input>
				<port id="0" precision="I8">
					<dim>8</dim>
					<dim>64</dim>
					<dim>1</dim>
					<dim>1</dim>
				</port>
			</input>
			<output>
				<port id="1" precision="FP32">
					<dim>8</dim>
					<dim>64</dim>
					<dim>1</dim>
					<dim>1</dim>
				</port>
			</output>
		</layer>
		<layer id="92" name="Constant_515029" type="Const" version="opset1">
			<data element_type="f32" shape="8, 1, 1, 1" offset="32696" size="32" />
			<output>
				<port id="0" precision="FP32">
					<dim>8</dim>
					<dim>1</dim>
					<dim>1</dim>
					<dim>1</dim>
				</port>
			</output>
		</layer>
		<layer id="93" name="/model.2/conv/conv.7/Conv/WithoutBiases/fq_weights_1" type="Multiply" version="opset1">
			<data auto_broadcast="numpy" />
			<input>
				<port id="0" precision="FP32">
					<dim>8</dim>
					<dim>64</dim>
					<dim>1</dim>
					<dim>1</dim>
				</port>
				<port id="1" precision="FP32">
					<dim>8</dim>
					<dim>1</dim>
					<dim>1</dim>
					<dim>1</dim>
				</port>
			</input>
			<output>
				<port id="2" precision="FP32">
					<dim>8</dim>
					<dim>64</dim>
					<dim>1</dim>
					<dim>1</dim>
				</port>
			</output>
		</layer>
		<layer id="94" name="/model.2/conv/conv.7/Conv/WithoutBiases" type="Convolution" version="opset1">
			<data strides="1, 1" dilations="1, 1" pads_begin="0, 0" pads_end="0, 0" auto_pad="explicit" />
			<input>
				<port id="0" precision="FP32">
					<dim>1</dim>
					<dim>64</dim>
					<dim>104</dim>
					<dim>104</dim>
				</port>
				<port id="1" precision="FP32">
					<dim>8</dim>
					<dim>64</dim>
					<dim>1</dim>
					<dim>1</dim>
				</port>
			</input>
			<output>
				<port id="2" precision="FP32">
					<dim>1</dim>
					<dim>8</dim>
					<dim>104</dim>
					<dim>104</dim>
				</port>
			</output>
		</layer>
		<layer id="95" name="Reshape_460" type="Const" version="opset1">
			<data element_type="f32" shape="1, 8, 1, 1" offset="32728" size="32" />
			<output>
				<port id="0" precision="FP32">
					<dim>1</dim>
					<dim>8</dim>
					<dim>1</dim>
					<dim>1</dim>
				</port>
			</output>
		</layer>
		<layer id="96" name="/model.2/conv/conv.7/Conv" type="Add" version="opset1">
			<data auto_broadcast="numpy" />
			<input>
				<port id="0" precision="FP32">
					<dim>1</dim>
					<dim>8</dim>
					<dim>104</dim>
					<dim>104</dim>
				</port>
				<port id="1" precision="FP32">
					<dim>1</dim>
					<dim>8</dim>
					<dim>1</dim>
					<dim>1</dim>
				</port>
			</input>
			<output>
				<port id="2" precision="FP32" names="/model.2/conv/conv.7/Conv_output_0">
					<dim>1</dim>
					<dim>8</dim>
					<dim>104</dim>
					<dim>104</dim>
				</port>
			</output>
		</layer>
		<layer id="97" name="/model.2/conv/conv.7/Conv/fq_output_0/input_low" type="Const" version="opset1">
			<data element_type="f32" shape="" offset="32760" size="4" />
			<output>
				<port id="0" precision="FP32" />
			</output>
		</layer>
		<layer id="98" name="/model.2/conv/conv.7/Conv/fq_output_0/input_high" type="Const" version="opset1">
			<data element_type="f32" shape="" offset="32764" size="4" />
			<output>
				<port id="0" precision="FP32" />
			</output>
		</layer>
		<layer id="99" name="/model.2/conv/conv.7/Conv/fq_output_0/output_low" type="Const" version="opset1">
			<data element_type="f32" shape="" offset="32760" size="4" />
			<output>
				<port id="0" precision="FP32" />
			</output>
		</layer>
		<layer id="100" name="/model.2/conv/conv.7/Conv/fq_output_0/output_high" type="Const" version="opset1">
			<data element_type="f32" shape="" offset="32764" size="4" />
			<output>
				<port id="0" precision="FP32" />
			</output>
		</layer>
		<layer id="101" name="/model.2/conv/conv.7/Conv/fq_output_0" type="FakeQuantize" version="opset1">
			<data levels="256" auto_broadcast="numpy" />
			<input>
				<port id="0" precision="FP32">
					<dim>1</dim>
					<dim>8</dim>
					<dim>104</dim>
					<dim>104</dim>
				</port>
				<port id="1" precision="FP32" />
				<port id="2" precision="FP32" />
				<port id="3" precision="FP32" />
				<port id="4" precision="FP32" />
			</input>
			<output>
				<port id="5" precision="FP32">
					<dim>1</dim>
					<dim>8</dim>
					<dim>104</dim>
					<dim>104</dim>
				</port>
			</output>
		</layer>
		<layer id="102" name="Constant_515031" type="Const" version="opset1">
			<data element_type="i8" shape="72, 8, 1, 1" offset="32768" size="576" />
			<output>
				<port id="0" precision="I8">
					<dim>72</dim>
					<dim>8</dim>
					<dim>1</dim>
					<dim>1</dim>
				</port>
			</output>
		</layer>
		<layer id="103" name="Convert_515032" type="Convert" version="opset1">
			<data destination_type="f32" />
			<input>
				<port id="0" precision="I8">
					<dim>72</dim>
					<dim>8</dim>
					<dim>1</dim>
					<dim>1</dim>
				</port>
			</input>
			<output>
				<port id="1" precision="FP32">
					<dim>72</dim>
					<dim>8</dim>
					<dim>1</dim>
					<dim>1</dim>
				</port>
			</output>
		</layer>
		<layer id="104" name="Constant_515033" type="Const" version="opset1">
			<data element_type="f32" shape="72, 1, 1, 1" offset="33344" size="288" />
			<output>
				<port id="0" precision="FP32">
					<dim>72</dim>
					<dim>1</dim>
					<dim>1</dim>
					<dim>1</dim>
				</port>
			</output>
		</layer>
		<layer id="105" name="/model.3/conv/conv.0/Conv/WithoutBiases/fq_weights_1" type="Multiply" version="opset1">
			<data auto_broadcast="numpy" />
			<input>
				<port id="0" precision="FP32">
					<dim>72</dim>
					<dim>8</dim>
					<dim>1</dim>
					<dim>1</dim>
				</port>
				<port id="1" precision="FP32">
					<dim>72</dim>
					<dim>1</dim>
					<dim>1</dim>
					<dim>1</dim>
				</port>
			</input>
			<output>
				<port id="2" precision="FP32">
					<dim>72</dim>
					<dim>8</dim>
					<dim>1</dim>
					<dim>1</dim>
				</port>
			</output>
		</layer>
		<layer id="106" name="/model.3/conv/conv.0/Conv/WithoutBiases" type="Convolution" version="opset1">
			<data strides="1, 1" dilations="1, 1" pads_begin="0, 0" pads_end="0, 0" auto_pad="explicit" />
			<input>
				<port id="0" precision="FP32">
					<dim>1</dim>
					<dim>8</dim>
					<dim>104</dim>
					<dim>104</dim>
				</port>
				<port id="1" precision="FP32">
					<dim>72</dim>
					<dim>8</dim>
					<dim>1</dim>
					<dim>1</dim>
				</port>
			</input>
			<output>
				<port id="2" precision="FP32">
					<dim>1</dim>
					<dim>72</dim>
					<dim>104</dim>
					<dim>104</dim>
				</port>
			</output>
		</layer>
		<layer id="107" name="Reshape_476" type="Const" version="opset1">
			<data element_type="f32" shape="1, 72, 1, 1" offset="33632" size="288" />
			<output>
				<port id="0" precision="FP32">
					<dim>1</dim>
					<dim>72</dim>
					<dim>1</dim>
					<dim>1</dim>
				</port>
			</output>
		</layer>
		<layer id="108" name="/model.3/conv/conv.0/Conv" type="Add" version="opset1">
			<data auto_broadcast="numpy" />
			<input>
				<port id="0" precision="FP32">
					<dim>1</dim>
					<dim>72</dim>
					<dim>104</dim>
					<dim>104</dim>
				</port>
				<port id="1" precision="FP32">
					<dim>1</dim>
					<dim>72</dim>
					<dim>1</dim>
					<dim>1</dim>
				</port>
			</input>
			<output>
				<port id="2" precision="FP32" names="/model.3/conv/conv.0/Conv_output_0">
					<dim>1</dim>
					<dim>72</dim>
					<dim>104</dim>
					<dim>104</dim>
				</port>
			</output>
		</layer>
		<layer id="109" name="/model.3/conv/conv.2/Relu" type="ReLU" version="opset1">
			<input>
				<port id="0" precision="FP32">
					<dim>1</dim>
					<dim>72</dim>
					<dim>104</dim>
					<dim>104</dim>
				</port>
			</input>
			<output>
				<port id="1" precision="FP32" names="/model.3/conv/conv.2/Relu_output_0">
					<dim>1</dim>
					<dim>72</dim>
					<dim>104</dim>
					<dim>104</dim>
				</port>
			</output>
		</layer>
		<layer id="110" name="/model.3/conv/conv.2/Relu/fq_output_0/input_low" type="Const" version="opset1">
			<data element_type="f32" shape="1, 72, 1, 1" offset="33920" size="288" />
			<output>
				<port id="0" precision="FP32">
					<dim>1</dim>
					<dim>72</dim>
					<dim>1</dim>
					<dim>1</dim>
				</port>
			</output>
		</layer>
		<layer id="111" name="/model.3/conv/conv.2/Relu/fq_output_0/input_high" type="Const" version="opset1">
			<data element_type="f32" shape="1, 72, 1, 1" offset="34208" size="288" />
			<output>
				<port id="0" precision="FP32">
					<dim>1</dim>
					<dim>72</dim>
					<dim>1</dim>
					<dim>1</dim>
				</port>
			</output>
		</layer>
		<layer id="112" name="/model.3/conv/conv.2/Relu/fq_output_0/output_low" type="Const" version="opset1">
			<data element_type="f32" shape="1, 72, 1, 1" offset="33920" size="288" />
			<output>
				<port id="0" precision="FP32">
					<dim>1</dim>
					<dim>72</dim>
					<dim>1</dim>
					<dim>1</dim>
				</port>
			</output>
		</layer>
		<layer id="113" name="/model.3/conv/conv.2/Relu/fq_output_0/output_high" type="Const" version="opset1">
			<data element_type="f32" shape="1, 72, 1, 1" offset="34208" size="288" />
			<output>
				<port id="0" precision="FP32">
					<dim>1</dim>
					<dim>72</dim>
					<dim>1</dim>
					<dim>1</dim>
				</port>
			</output>
		</layer>
		<layer id="114" name="/model.3/conv/conv.2/Relu/fq_output_0" type="FakeQuantize" version="opset1">
			<data levels="256" auto_broadcast="numpy" />
			<input>
				<port id="0" precision="FP32">
					<dim>1</dim>
					<dim>72</dim>
					<dim>104</dim>
					<dim>104</dim>
				</port>
				<port id="1" precision="FP32">
					<dim>1</dim>
					<dim>72</dim>
					<dim>1</dim>
					<dim>1</dim>
				</port>
				<port id="2" precision="FP32">
					<dim>1</dim>
					<dim>72</dim>
					<dim>1</dim>
					<dim>1</dim>
				</port>
				<port id="3" precision="FP32">
					<dim>1</dim>
					<dim>72</dim>
					<dim>1</dim>
					<dim>1</dim>
				</port>
				<port id="4" precision="FP32">
					<dim>1</dim>
					<dim>72</dim>
					<dim>1</dim>
					<dim>1</dim>
				</port>
			</input>
			<output>
				<port id="5" precision="FP32">
					<dim>1</dim>
					<dim>72</dim>
					<dim>104</dim>
					<dim>104</dim>
				</port>
			</output>
		</layer>
		<layer id="115" name="Constant_515035" type="Const" version="opset1">
			<data element_type="i8" shape="72, 1, 1, 3, 3" offset="34496" size="648" />
			<output>
				<port id="0" precision="I8">
					<dim>72</dim>
					<dim>1</dim>
					<dim>1</dim>
					<dim>3</dim>
					<dim>3</dim>
				</port>
			</output>
		</layer>
		<layer id="116" name="Convert_515036" type="Convert" version="opset1">
			<data destination_type="f32" />
			<input>
				<port id="0" precision="I8">
					<dim>72</dim>
					<dim>1</dim>
					<dim>1</dim>
					<dim>3</dim>
					<dim>3</dim>
				</port>
			</input>
			<output>
				<port id="1" precision="FP32">
					<dim>72</dim>
					<dim>1</dim>
					<dim>1</dim>
					<dim>3</dim>
					<dim>3</dim>
				</port>
			</output>
		</layer>
		<layer id="117" name="Constant_515037" type="Const" version="opset1">
			<data element_type="f32" shape="72, 1, 1, 1, 1" offset="35144" size="288" />
			<output>
				<port id="0" precision="FP32">
					<dim>72</dim>
					<dim>1</dim>
					<dim>1</dim>
					<dim>1</dim>
					<dim>1</dim>
				</port>
			</output>
		</layer>
		<layer id="118" name="/model.3/conv/conv.3/Conv/WithoutBiases/fq_weights_1" type="Multiply" version="opset1">
			<data auto_broadcast="numpy" />
			<input>
				<port id="0" precision="FP32">
					<dim>72</dim>
					<dim>1</dim>
					<dim>1</dim>
					<dim>3</dim>
					<dim>3</dim>
				</port>
				<port id="1" precision="FP32">
					<dim>72</dim>
					<dim>1</dim>
					<dim>1</dim>
					<dim>1</dim>
					<dim>1</dim>
				</port>
			</input>
			<output>
				<port id="2" precision="FP32">
					<dim>72</dim>
					<dim>1</dim>
					<dim>1</dim>
					<dim>3</dim>
					<dim>3</dim>
				</port>
			</output>
		</layer>
		<layer id="119" name="/model.3/conv/conv.3/Conv/WithoutBiases" type="GroupConvolution" version="opset1">
			<data strides="1, 1" pads_begin="1, 1" pads_end="1, 1" dilations="1, 1" auto_pad="explicit" />
			<input>
				<port id="0" precision="FP32">
					<dim>1</dim>
					<dim>72</dim>
					<dim>104</dim>
					<dim>104</dim>
				</port>
				<port id="1" precision="FP32">
					<dim>72</dim>
					<dim>1</dim>
					<dim>1</dim>
					<dim>3</dim>
					<dim>3</dim>
				</port>
			</input>
			<output>
				<port id="2" precision="FP32">
					<dim>1</dim>
					<dim>72</dim>
					<dim>104</dim>
					<dim>104</dim>
				</port>
			</output>
		</layer>
		<layer id="120" name="Reshape_540" type="Const" version="opset1">
			<data element_type="f32" shape="1, 72, 1, 1" offset="35432" size="288" />
			<output>
				<port id="0" precision="FP32">
					<dim>1</dim>
					<dim>72</dim>
					<dim>1</dim>
					<dim>1</dim>
				</port>
			</output>
		</layer>
		<layer id="121" name="/model.3/conv/conv.3/Conv" type="Add" version="opset1">
			<data auto_broadcast="numpy" />
			<input>
				<port id="0" precision="FP32">
					<dim>1</dim>
					<dim>72</dim>
					<dim>104</dim>
					<dim>104</dim>
				</port>
				<port id="1" precision="FP32">
					<dim>1</dim>
					<dim>72</dim>
					<dim>1</dim>
					<dim>1</dim>
				</port>
			</input>
			<output>
				<port id="2" precision="FP32" names="/model.3/conv/conv.3/Conv_output_0">
					<dim>1</dim>
					<dim>72</dim>
					<dim>104</dim>
					<dim>104</dim>
				</port>
			</output>
		</layer>
		<layer id="122" name="/model.3/conv/conv.6/Relu" type="ReLU" version="opset1">
			<input>
				<port id="0" precision="FP32">
					<dim>1</dim>
					<dim>72</dim>
					<dim>104</dim>
					<dim>104</dim>
				</port>
			</input>
			<output>
				<port id="1" precision="FP32" names="/model.3/conv/conv.6/Relu_output_0">
					<dim>1</dim>
					<dim>72</dim>
					<dim>104</dim>
					<dim>104</dim>
				</port>
			</output>
		</layer>
		<layer id="123" name="/model.3/conv/conv.6/Relu/fq_output_0/input_low" type="Const" version="opset1">
			<data element_type="f32" shape="" offset="28392" size="4" />
			<output>
				<port id="0" precision="FP32" />
			</output>
		</layer>
		<layer id="124" name="/model.3/conv/conv.6/Relu/fq_output_0/input_high" type="Const" version="opset1">
			<data element_type="f32" shape="" offset="35720" size="4" />
			<output>
				<port id="0" precision="FP32" />
			</output>
		</layer>
		<layer id="125" name="/model.3/conv/conv.6/Relu/fq_output_0/output_low" type="Const" version="opset1">
			<data element_type="f32" shape="" offset="28392" size="4" />
			<output>
				<port id="0" precision="FP32" />
			</output>
		</layer>
		<layer id="126" name="/model.3/conv/conv.6/Relu/fq_output_0/output_high" type="Const" version="opset1">
			<data element_type="f32" shape="" offset="35720" size="4" />
			<output>
				<port id="0" precision="FP32" />
			</output>
		</layer>
		<layer id="127" name="/model.3/conv/conv.6/Relu/fq_output_0" type="FakeQuantize" version="opset1">
			<data levels="256" auto_broadcast="numpy" />
			<input>
				<port id="0" precision="FP32">
					<dim>1</dim>
					<dim>72</dim>
					<dim>104</dim>
					<dim>104</dim>
				</port>
				<port id="1" precision="FP32" />
				<port id="2" precision="FP32" />
				<port id="3" precision="FP32" />
				<port id="4" precision="FP32" />
			</input>
			<output>
				<port id="5" precision="FP32">
					<dim>1</dim>
					<dim>72</dim>
					<dim>104</dim>
					<dim>104</dim>
				</port>
			</output>
		</layer>
		<layer id="128" name="Constant_515039" type="Const" version="opset1">
			<data element_type="i8" shape="8, 72, 1, 1" offset="35724" size="576" />
			<output>
				<port id="0" precision="I8">
					<dim>8</dim>
					<dim>72</dim>
					<dim>1</dim>
					<dim>1</dim>
				</port>
			</output>
		</layer>
		<layer id="129" name="Convert_515040" type="Convert" version="opset1">
			<data destination_type="f32" />
			<input>
				<port id="0" precision="I8">
					<dim>8</dim>
					<dim>72</dim>
					<dim>1</dim>
					<dim>1</dim>
				</port>
			</input>
			<output>
				<port id="1" precision="FP32">
					<dim>8</dim>
					<dim>72</dim>
					<dim>1</dim>
					<dim>1</dim>
				</port>
			</output>
		</layer>
		<layer id="130" name="Constant_515041" type="Const" version="opset1">
			<data element_type="f32" shape="8, 1, 1, 1" offset="36300" size="32" />
			<output>
				<port id="0" precision="FP32">
					<dim>8</dim>
					<dim>1</dim>
					<dim>1</dim>
					<dim>1</dim>
				</port>
			</output>
		</layer>
		<layer id="131" name="/model.3/conv/conv.7/Conv/WithoutBiases/fq_weights_1" type="Multiply" version="opset1">
			<data auto_broadcast="numpy" />
			<input>
				<port id="0" precision="FP32">
					<dim>8</dim>
					<dim>72</dim>
					<dim>1</dim>
					<dim>1</dim>
				</port>
				<port id="1" precision="FP32">
					<dim>8</dim>
					<dim>1</dim>
					<dim>1</dim>
					<dim>1</dim>
				</port>
			</input>
			<output>
				<port id="2" precision="FP32">
					<dim>8</dim>
					<dim>72</dim>
					<dim>1</dim>
					<dim>1</dim>
				</port>
			</output>
		</layer>
		<layer id="132" name="/model.3/conv/conv.7/Conv/WithoutBiases" type="Convolution" version="opset1">
			<data strides="1, 1" dilations="1, 1" pads_begin="0, 0" pads_end="0, 0" auto_pad="explicit" />
			<input>
				<port id="0" precision="FP32">
					<dim>1</dim>
					<dim>72</dim>
					<dim>104</dim>
					<dim>104</dim>
				</port>
				<port id="1" precision="FP32">
					<dim>8</dim>
					<dim>72</dim>
					<dim>1</dim>
					<dim>1</dim>
				</port>
			</input>
			<output>
				<port id="2" precision="FP32">
					<dim>1</dim>
					<dim>8</dim>
					<dim>104</dim>
					<dim>104</dim>
				</port>
			</output>
		</layer>
		<layer id="133" name="Reshape_557" type="Const" version="opset1">
			<data element_type="f32" shape="1, 8, 1, 1" offset="36332" size="32" />
			<output>
				<port id="0" precision="FP32">
					<dim>1</dim>
					<dim>8</dim>
					<dim>1</dim>
					<dim>1</dim>
				</port>
			</output>
		</layer>
		<layer id="134" name="/model.3/conv/conv.7/Conv" type="Add" version="opset1">
			<data auto_broadcast="numpy" />
			<input>
				<port id="0" precision="FP32">
					<dim>1</dim>
					<dim>8</dim>
					<dim>104</dim>
					<dim>104</dim>
				</port>
				<port id="1" precision="FP32">
					<dim>1</dim>
					<dim>8</dim>
					<dim>1</dim>
					<dim>1</dim>
				</port>
			</input>
			<output>
				<port id="2" precision="FP32" names="/model.3/conv/conv.7/Conv_output_0">
					<dim>1</dim>
					<dim>8</dim>
					<dim>104</dim>
					<dim>104</dim>
				</port>
			</output>
		</layer>
		<layer id="135" name="/model.3/conv/conv.7/Conv/fq_output_0/input_low" type="Const" version="opset1">
			<data element_type="f32" shape="" offset="36364" size="4" />
			<output>
				<port id="0" precision="FP32" />
			</output>
		</layer>
		<layer id="136" name="/model.3/conv/conv.7/Conv/fq_output_0/input_high" type="Const" version="opset1">
			<data element_type="f32" shape="" offset="36368" size="4" />
			<output>
				<port id="0" precision="FP32" />
			</output>
		</layer>
		<layer id="137" name="/model.3/conv/conv.7/Conv/fq_output_0/output_low" type="Const" version="opset1">
			<data element_type="f32" shape="" offset="36364" size="4" />
			<output>
				<port id="0" precision="FP32" />
			</output>
		</layer>
		<layer id="138" name="/model.3/conv/conv.7/Conv/fq_output_0/output_high" type="Const" version="opset1">
			<data element_type="f32" shape="" offset="36368" size="4" />
			<output>
				<port id="0" precision="FP32" />
			</output>
		</layer>
		<layer id="139" name="/model.3/conv/conv.7/Conv/fq_output_0" type="FakeQuantize" version="opset1">
			<data levels="256" auto_broadcast="numpy" />
			<input>
				<port id="0" precision="FP32">
					<dim>1</dim>
					<dim>8</dim>
					<dim>104</dim>
					<dim>104</dim>
				</port>
				<port id="1" precision="FP32" />
				<port id="2" precision="FP32" />
				<port id="3" precision="FP32" />
				<port id="4" precision="FP32" />
			</input>
			<output>
				<port id="5" precision="FP32">
					<dim>1</dim>
					<dim>8</dim>
					<dim>104</dim>
					<dim>104</dim>
				</port>
			</output>
		</layer>
		<layer id="140" name="/model.3/Add" type="Add" version="opset1">
			<data auto_broadcast="numpy" />
			<input>
				<port id="0" precision="FP32">
					<dim>1</dim>
					<dim>8</dim>
					<dim>104</dim>
					<dim>104</dim>
				</port>
				<port id="1" precision="FP32">
					<dim>1</dim>
					<dim>8</dim>
					<dim>104</dim>
					<dim>104</dim>
				</port>
			</input>
			<output>
				<port id="2" precision="FP32" names="/model.3/Add_output_0">
					<dim>1</dim>
					<dim>8</dim>
					<dim>104</dim>
					<dim>104</dim>
				</port>
			</output>
		</layer>
		<layer id="141" name="/model.3/Add/fq_output_0/input_low" type="Const" version="opset1">
			<data element_type="f32" shape="" offset="36372" size="4" />
			<output>
				<port id="0" precision="FP32" />
			</output>
		</layer>
		<layer id="142" name="/model.3/Add/fq_output_0/input_high" type="Const" version="opset1">
			<data element_type="f32" shape="" offset="36376" size="4" />
			<output>
				<port id="0" precision="FP32" />
			</output>
		</layer>
		<layer id="143" name="/model.3/Add/fq_output_0/output_low" type="Const" version="opset1">
			<data element_type="f32" shape="" offset="36372" size="4" />
			<output>
				<port id="0" precision="FP32" />
			</output>
		</layer>
		<layer id="144" name="/model.3/Add/fq_output_0/output_high" type="Const" version="opset1">
			<data element_type="f32" shape="" offset="36376" size="4" />
			<output>
				<port id="0" precision="FP32" />
			</output>
		</layer>
		<layer id="145" name="/model.3/Add/fq_output_0" type="FakeQuantize" version="opset1">
			<data levels="256" auto_broadcast="numpy" />
			<input>
				<port id="0" precision="FP32">
					<dim>1</dim>
					<dim>8</dim>
					<dim>104</dim>
					<dim>104</dim>
				</port>
				<port id="1" precision="FP32" />
				<port id="2" precision="FP32" />
				<port id="3" precision="FP32" />
				<port id="4" precision="FP32" />
			</input>
			<output>
				<port id="5" precision="FP32">
					<dim>1</dim>
					<dim>8</dim>
					<dim>104</dim>
					<dim>104</dim>
				</port>
			</output>
		</layer>
		<layer id="146" name="Constant_515043" type="Const" version="opset1">
			<data element_type="i8" shape="72, 8, 1, 1" offset="36380" size="576" />
			<output>
				<port id="0" precision="I8">
					<dim>72</dim>
					<dim>8</dim>
					<dim>1</dim>
					<dim>1</dim>
				</port>
			</output>
		</layer>
		<layer id="147" name="Convert_515044" type="Convert" version="opset1">
			<data destination_type="f32" />
			<input>
				<port id="0" precision="I8">
					<dim>72</dim>
					<dim>8</dim>
					<dim>1</dim>
					<dim>1</dim>
				</port>
			</input>
			<output>
				<port id="1" precision="FP32">
					<dim>72</dim>
					<dim>8</dim>
					<dim>1</dim>
					<dim>1</dim>
				</port>
			</output>
		</layer>
		<layer id="148" name="Constant_515045" type="Const" version="opset1">
			<data element_type="f32" shape="72, 1, 1, 1" offset="36956" size="288" />
			<output>
				<port id="0" precision="FP32">
					<dim>72</dim>
					<dim>1</dim>
					<dim>1</dim>
					<dim>1</dim>
				</port>
			</output>
		</layer>
		<layer id="149" name="/model.4/conv/conv.0/Conv/WithoutBiases/fq_weights_1" type="Multiply" version="opset1">
			<data auto_broadcast="numpy" />
			<input>
				<port id="0" precision="FP32">
					<dim>72</dim>
					<dim>8</dim>
					<dim>1</dim>
					<dim>1</dim>
				</port>
				<port id="1" precision="FP32">
					<dim>72</dim>
					<dim>1</dim>
					<dim>1</dim>
					<dim>1</dim>
				</port>
			</input>
			<output>
				<port id="2" precision="FP32">
					<dim>72</dim>
					<dim>8</dim>
					<dim>1</dim>
					<dim>1</dim>
				</port>
			</output>
		</layer>
		<layer id="150" name="/model.4/conv/conv.0/Conv/WithoutBiases" type="Convolution" version="opset1">
			<data strides="1, 1" dilations="1, 1" pads_begin="0, 0" pads_end="0, 0" auto_pad="explicit" />
			<input>
				<port id="0" precision="FP32">
					<dim>1</dim>
					<dim>8</dim>
					<dim>104</dim>
					<dim>104</dim>
				</port>
				<port id="1" precision="FP32">
					<dim>72</dim>
					<dim>8</dim>
					<dim>1</dim>
					<dim>1</dim>
				</port>
			</input>
			<output>
				<port id="2" precision="FP32">
					<dim>1</dim>
					<dim>72</dim>
					<dim>104</dim>
					<dim>104</dim>
				</port>
			</output>
		</layer>
		<layer id="151" name="Reshape_574" type="Const" version="opset1">
			<data element_type="f32" shape="1, 72, 1, 1" offset="37244" size="288" />
			<output>
				<port id="0" precision="FP32">
					<dim>1</dim>
					<dim>72</dim>
					<dim>1</dim>
					<dim>1</dim>
				</port>
			</output>
		</layer>
		<layer id="152" name="/model.4/conv/conv.0/Conv" type="Add" version="opset1">
			<data auto_broadcast="numpy" />
			<input>
				<port id="0" precision="FP32">
					<dim>1</dim>
					<dim>72</dim>
					<dim>104</dim>
					<dim>104</dim>
				</port>
				<port id="1" precision="FP32">
					<dim>1</dim>
					<dim>72</dim>
					<dim>1</dim>
					<dim>1</dim>
				</port>
			</input>
			<output>
				<port id="2" precision="FP32" names="/model.4/conv/conv.0/Conv_output_0">
					<dim>1</dim>
					<dim>72</dim>
					<dim>104</dim>
					<dim>104</dim>
				</port>
			</output>
		</layer>
		<layer id="153" name="/model.4/conv/conv.2/Relu" type="ReLU" version="opset1">
			<input>
				<port id="0" precision="FP32">
					<dim>1</dim>
					<dim>72</dim>
					<dim>104</dim>
					<dim>104</dim>
				</port>
			</input>
			<output>
				<port id="1" precision="FP32" names="/model.4/conv/conv.2/Relu_output_0">
					<dim>1</dim>
					<dim>72</dim>
					<dim>104</dim>
					<dim>104</dim>
				</port>
			</output>
		</layer>
		<layer id="154" name="/model.4/conv/conv.2/Relu/fq_output_0/input_low" type="Const" version="opset1">
			<data element_type="f32" shape="1, 72, 1, 1" offset="33920" size="288" />
			<output>
				<port id="0" precision="FP32">
					<dim>1</dim>
					<dim>72</dim>
					<dim>1</dim>
					<dim>1</dim>
				</port>
			</output>
		</layer>
		<layer id="155" name="/model.4/conv/conv.2/Relu/fq_output_0/input_high" type="Const" version="opset1">
			<data element_type="f32" shape="1, 72, 1, 1" offset="37532" size="288" />
			<output>
				<port id="0" precision="FP32">
					<dim>1</dim>
					<dim>72</dim>
					<dim>1</dim>
					<dim>1</dim>
				</port>
			</output>
		</layer>
		<layer id="156" name="/model.4/conv/conv.2/Relu/fq_output_0/output_low" type="Const" version="opset1">
			<data element_type="f32" shape="1, 72, 1, 1" offset="33920" size="288" />
			<output>
				<port id="0" precision="FP32">
					<dim>1</dim>
					<dim>72</dim>
					<dim>1</dim>
					<dim>1</dim>
				</port>
			</output>
		</layer>
		<layer id="157" name="/model.4/conv/conv.2/Relu/fq_output_0/output_high" type="Const" version="opset1">
			<data element_type="f32" shape="1, 72, 1, 1" offset="37532" size="288" />
			<output>
				<port id="0" precision="FP32">
					<dim>1</dim>
					<dim>72</dim>
					<dim>1</dim>
					<dim>1</dim>
				</port>
			</output>
		</layer>
		<layer id="158" name="/model.4/conv/conv.2/Relu/fq_output_0" type="FakeQuantize" version="opset1">
			<data levels="256" auto_broadcast="numpy" />
			<input>
				<port id="0" precision="FP32">
					<dim>1</dim>
					<dim>72</dim>
					<dim>104</dim>
					<dim>104</dim>
				</port>
				<port id="1" precision="FP32">
					<dim>1</dim>
					<dim>72</dim>
					<dim>1</dim>
					<dim>1</dim>
				</port>
				<port id="2" precision="FP32">
					<dim>1</dim>
					<dim>72</dim>
					<dim>1</dim>
					<dim>1</dim>
				</port>
				<port id="3" precision="FP32">
					<dim>1</dim>
					<dim>72</dim>
					<dim>1</dim>
					<dim>1</dim>
				</port>
				<port id="4" precision="FP32">
					<dim>1</dim>
					<dim>72</dim>
					<dim>1</dim>
					<dim>1</dim>
				</port>
			</input>
			<output>
				<port id="5" precision="FP32">
					<dim>1</dim>
					<dim>72</dim>
					<dim>104</dim>
					<dim>104</dim>
				</port>
			</output>
		</layer>
		<layer id="159" name="Constant_515047" type="Const" version="opset1">
			<data element_type="i8" shape="72, 1, 1, 5, 5" offset="37820" size="1800" />
			<output>
				<port id="0" precision="I8">
					<dim>72</dim>
					<dim>1</dim>
					<dim>1</dim>
					<dim>5</dim>
					<dim>5</dim>
				</port>
			</output>
		</layer>
		<layer id="160" name="Convert_515048" type="Convert" version="opset1">
			<data destination_type="f32" />
			<input>
				<port id="0" precision="I8">
					<dim>72</dim>
					<dim>1</dim>
					<dim>1</dim>
					<dim>5</dim>
					<dim>5</dim>
				</port>
			</input>
			<output>
				<port id="1" precision="FP32">
					<dim>72</dim>
					<dim>1</dim>
					<dim>1</dim>
					<dim>5</dim>
					<dim>5</dim>
				</port>
			</output>
		</layer>
		<layer id="161" name="Constant_515049" type="Const" version="opset1">
			<data element_type="f32" shape="72, 1, 1, 1, 1" offset="39620" size="288" />
			<output>
				<port id="0" precision="FP32">
					<dim>72</dim>
					<dim>1</dim>
					<dim>1</dim>
					<dim>1</dim>
					<dim>1</dim>
				</port>
			</output>
		</layer>
		<layer id="162" name="/model.4/conv/conv.3/Conv/WithoutBiases/fq_weights_1" type="Multiply" version="opset1">
			<data auto_broadcast="numpy" />
			<input>
				<port id="0" precision="FP32">
					<dim>72</dim>
					<dim>1</dim>
					<dim>1</dim>
					<dim>5</dim>
					<dim>5</dim>
				</port>
				<port id="1" precision="FP32">
					<dim>72</dim>
					<dim>1</dim>
					<dim>1</dim>
					<dim>1</dim>
					<dim>1</dim>
				</port>
			</input>
			<output>
				<port id="2" precision="FP32">
					<dim>72</dim>
					<dim>1</dim>
					<dim>1</dim>
					<dim>5</dim>
					<dim>5</dim>
				</port>
			</output>
		</layer>
		<layer id="163" name="/model.4/conv/conv.3/Conv/WithoutBiases" type="GroupConvolution" version="opset1">
			<data strides="2, 2" pads_begin="2, 2" pads_end="2, 2" dilations="1, 1" auto_pad="explicit" />
			<input>
				<port id="0" precision="FP32">
					<dim>1</dim>
					<dim>72</dim>
					<dim>104</dim>
					<dim>104</dim>
				</port>
				<port id="1" precision="FP32">
					<dim>72</dim>
					<dim>1</dim>
					<dim>1</dim>
					<dim>5</dim>
					<dim>5</dim>
				</port>
			</input>
			<output>
				<port id="2" precision="FP32">
					<dim>1</dim>
					<dim>72</dim>
					<dim>52</dim>
					<dim>52</dim>
				</port>
			</output>
		</layer>
		<layer id="164" name="Reshape_638" type="Const" version="opset1">
			<data element_type="f32" shape="1, 72, 1, 1" offset="39908" size="288" />
			<output>
				<port id="0" precision="FP32">
					<dim>1</dim>
					<dim>72</dim>
					<dim>1</dim>
					<dim>1</dim>
				</port>
			</output>
		</layer>
		<layer id="165" name="/model.4/conv/conv.3/Conv" type="Add" version="opset1">
			<data auto_broadcast="numpy" />
			<input>
				<port id="0" precision="FP32">
					<dim>1</dim>
					<dim>72</dim>
					<dim>52</dim>
					<dim>52</dim>
				</port>
				<port id="1" precision="FP32">
					<dim>1</dim>
					<dim>72</dim>
					<dim>1</dim>
					<dim>1</dim>
				</port>
			</input>
			<output>
				<port id="2" precision="FP32" names="/model.4/conv/conv.3/Conv_output_0">
					<dim>1</dim>
					<dim>72</dim>
					<dim>52</dim>
					<dim>52</dim>
				</port>
			</output>
		</layer>
		<layer id="166" name="/model.4/conv/conv.5/avg_pool/GlobalAveragePool/fq_input_0/input_low" type="Const" version="opset1">
			<data element_type="f32" shape="" offset="40196" size="4" />
			<output>
				<port id="0" precision="FP32" />
			</output>
		</layer>
		<layer id="167" name="/model.4/conv/conv.5/avg_pool/GlobalAveragePool/fq_input_0/input_high" type="Const" version="opset1">
			<data element_type="f32" shape="" offset="40200" size="4" />
			<output>
				<port id="0" precision="FP32" />
			</output>
		</layer>
		<layer id="168" name="/model.4/conv/conv.5/avg_pool/GlobalAveragePool/fq_input_0/output_low" type="Const" version="opset1">
			<data element_type="f32" shape="" offset="40196" size="4" />
			<output>
				<port id="0" precision="FP32" />
			</output>
		</layer>
		<layer id="169" name="/model.4/conv/conv.5/avg_pool/GlobalAveragePool/fq_input_0/output_high" type="Const" version="opset1">
			<data element_type="f32" shape="" offset="40200" size="4" />
			<output>
				<port id="0" precision="FP32" />
			</output>
		</layer>
		<layer id="170" name="/model.4/conv/conv.5/avg_pool/GlobalAveragePool/fq_input_0" type="FakeQuantize" version="opset1">
			<data levels="256" auto_broadcast="numpy" />
			<input>
				<port id="0" precision="FP32">
					<dim>1</dim>
					<dim>72</dim>
					<dim>52</dim>
					<dim>52</dim>
				</port>
				<port id="1" precision="FP32" />
				<port id="2" precision="FP32" />
				<port id="3" precision="FP32" />
				<port id="4" precision="FP32" />
			</input>
			<output>
				<port id="5" precision="FP32">
					<dim>1</dim>
					<dim>72</dim>
					<dim>52</dim>
					<dim>52</dim>
				</port>
			</output>
		</layer>
		<layer id="171" name="Range_648" type="Const" version="opset1">
			<data element_type="i64" shape="2" offset="40204" size="16" />
			<output>
				<port id="0" precision="I64">
					<dim>2</dim>
				</port>
			</output>
		</layer>
		<layer id="172" name="/model.4/conv/conv.5/avg_pool/GlobalAveragePool" type="ReduceMean" version="opset1">
			<data keep_dims="true" />
			<input>
				<port id="0" precision="FP32">
					<dim>1</dim>
					<dim>72</dim>
					<dim>52</dim>
					<dim>52</dim>
				</port>
				<port id="1" precision="I64">
					<dim>2</dim>
				</port>
			</input>
			<output>
				<port id="2" precision="FP32" names="/model.4/conv/conv.5/avg_pool/GlobalAveragePool_output_0">
					<dim>1</dim>
					<dim>72</dim>
					<dim>1</dim>
					<dim>1</dim>
				</port>
			</output>
		</layer>
		<layer id="173" name="/model.4/conv/conv.5/avg_pool/GlobalAveragePool/fq_output_0/input_low" type="Const" version="opset1">
			<data element_type="f32" shape="" offset="40220" size="4" />
			<output>
				<port id="0" precision="FP32" />
			</output>
		</layer>
		<layer id="174" name="/model.4/conv/conv.5/avg_pool/GlobalAveragePool/fq_output_0/input_high" type="Const" version="opset1">
			<data element_type="f32" shape="" offset="40224" size="4" />
			<output>
				<port id="0" precision="FP32" />
			</output>
		</layer>
		<layer id="175" name="/model.4/conv/conv.5/avg_pool/GlobalAveragePool/fq_output_0/output_low" type="Const" version="opset1">
			<data element_type="f32" shape="" offset="40220" size="4" />
			<output>
				<port id="0" precision="FP32" />
			</output>
		</layer>
		<layer id="176" name="/model.4/conv/conv.5/avg_pool/GlobalAveragePool/fq_output_0/output_high" type="Const" version="opset1">
			<data element_type="f32" shape="" offset="40224" size="4" />
			<output>
				<port id="0" precision="FP32" />
			</output>
		</layer>
		<layer id="177" name="/model.4/conv/conv.5/avg_pool/GlobalAveragePool/fq_output_0" type="FakeQuantize" version="opset1">
			<data levels="256" auto_broadcast="numpy" />
			<input>
				<port id="0" precision="FP32">
					<dim>1</dim>
					<dim>72</dim>
					<dim>1</dim>
					<dim>1</dim>
				</port>
				<port id="1" precision="FP32" />
				<port id="2" precision="FP32" />
				<port id="3" precision="FP32" />
				<port id="4" precision="FP32" />
			</input>
			<output>
				<port id="5" precision="FP32">
					<dim>1</dim>
					<dim>72</dim>
					<dim>1</dim>
					<dim>1</dim>
				</port>
			</output>
		</layer>
		<layer id="178" name="/model.4/conv/conv.5/Constant_output_0" type="Const" version="opset1">
			<data element_type="i64" shape="2" offset="40228" size="16" />
			<output>
				<port id="0" precision="I64" names="/model.4/conv/conv.5/Constant_output_0">
					<dim>2</dim>
				</port>
			</output>
		</layer>
		<layer id="179" name="/model.4/conv/conv.5/Reshape" type="Reshape" version="opset1">
			<data special_zero="true" />
			<input>
				<port id="0" precision="FP32">
					<dim>1</dim>
					<dim>72</dim>
					<dim>1</dim>
					<dim>1</dim>
				</port>
				<port id="1" precision="I64">
					<dim>2</dim>
				</port>
			</input>
			<output>
				<port id="2" precision="FP32" names="/model.4/conv/conv.5/Reshape_output_0">
					<dim>1</dim>
					<dim>72</dim>
				</port>
			</output>
		</layer>
		<layer id="180" name="Constant_515051" type="Const" version="opset1">
			<data element_type="i8" shape="18, 72" offset="40244" size="1296" />
			<output>
				<port id="0" precision="I8">
					<dim>18</dim>
					<dim>72</dim>
				</port>
			</output>
		</layer>
		<layer id="181" name="Convert_515052" type="Convert" version="opset1">
			<data destination_type="f32" />
			<input>
				<port id="0" precision="I8">
					<dim>18</dim>
					<dim>72</dim>
				</port>
			</input>
			<output>
				<port id="1" precision="FP32">
					<dim>18</dim>
					<dim>72</dim>
				</port>
			</output>
		</layer>
		<layer id="182" name="Constant_515053" type="Const" version="opset1">
			<data element_type="f32" shape="18, 1" offset="41540" size="72" />
			<output>
				<port id="0" precision="FP32">
					<dim>18</dim>
					<dim>1</dim>
				</port>
			</output>
		</layer>
		<layer id="183" name="/model.4/conv/conv.5/fc/fc.0/Gemm/WithoutBiases/fq_weights_1" type="Multiply" version="opset1">
			<data auto_broadcast="numpy" />
			<input>
				<port id="0" precision="FP32">
					<dim>18</dim>
					<dim>72</dim>
				</port>
				<port id="1" precision="FP32">
					<dim>18</dim>
					<dim>1</dim>
				</port>
			</input>
			<output>
				<port id="2" precision="FP32">
					<dim>18</dim>
					<dim>72</dim>
				</port>
			</output>
		</layer>
		<layer id="184" name="/model.4/conv/conv.5/fc/fc.0/Gemm/WithoutBiases" type="MatMul" version="opset1">
			<data transpose_a="false" transpose_b="true" />
			<input>
				<port id="0" precision="FP32">
					<dim>1</dim>
					<dim>72</dim>
				</port>
				<port id="1" precision="FP32">
					<dim>18</dim>
					<dim>72</dim>
				</port>
			</input>
			<output>
				<port id="2" precision="FP32">
					<dim>1</dim>
					<dim>18</dim>
				</port>
			</output>
		</layer>
		<layer id="185" name="Constant_7120" type="Const" version="opset1">
			<data element_type="f32" shape="1, 18" offset="41612" size="72" />
			<output>
				<port id="0" precision="FP32">
					<dim>1</dim>
					<dim>18</dim>
				</port>
			</output>
		</layer>
		<layer id="186" name="/model.4/conv/conv.5/fc/fc.0/Gemm" type="Add" version="opset1">
			<data auto_broadcast="numpy" />
			<input>
				<port id="0" precision="FP32">
					<dim>1</dim>
					<dim>18</dim>
				</port>
				<port id="1" precision="FP32">
					<dim>1</dim>
					<dim>18</dim>
				</port>
			</input>
			<output>
				<port id="2" precision="FP32" names="/model.4/conv/conv.5/fc/fc.0/Gemm_output_0">
					<dim>1</dim>
					<dim>18</dim>
				</port>
			</output>
		</layer>
		<layer id="187" name="/model.4/conv/conv.5/fc/fc.1/Relu" type="ReLU" version="opset1">
			<input>
				<port id="0" precision="FP32">
					<dim>1</dim>
					<dim>18</dim>
				</port>
			</input>
			<output>
				<port id="1" precision="FP32" names="/model.4/conv/conv.5/fc/fc.1/Relu_output_0">
					<dim>1</dim>
					<dim>18</dim>
				</port>
			</output>
		</layer>
		<layer id="188" name="/model.4/conv/conv.5/fc/fc.1/Relu/fq_output_0/input_low" type="Const" version="opset1">
			<data element_type="f32" shape="" offset="28392" size="4" />
			<output>
				<port id="0" precision="FP32" />
			</output>
		</layer>
		<layer id="189" name="/model.4/conv/conv.5/fc/fc.1/Relu/fq_output_0/input_high" type="Const" version="opset1">
			<data element_type="f32" shape="" offset="41684" size="4" />
			<output>
				<port id="0" precision="FP32" />
			</output>
		</layer>
		<layer id="190" name="/model.4/conv/conv.5/fc/fc.1/Relu/fq_output_0/output_low" type="Const" version="opset1">
			<data element_type="f32" shape="" offset="28392" size="4" />
			<output>
				<port id="0" precision="FP32" />
			</output>
		</layer>
		<layer id="191" name="/model.4/conv/conv.5/fc/fc.1/Relu/fq_output_0/output_high" type="Const" version="opset1">
			<data element_type="f32" shape="" offset="41684" size="4" />
			<output>
				<port id="0" precision="FP32" />
			</output>
		</layer>
		<layer id="192" name="/model.4/conv/conv.5/fc/fc.1/Relu/fq_output_0" type="FakeQuantize" version="opset1">
			<data levels="256" auto_broadcast="numpy" />
			<input>
				<port id="0" precision="FP32">
					<dim>1</dim>
					<dim>18</dim>
				</port>
				<port id="1" precision="FP32" />
				<port id="2" precision="FP32" />
				<port id="3" precision="FP32" />
				<port id="4" precision="FP32" />
			</input>
			<output>
				<port id="5" precision="FP32">
					<dim>1</dim>
					<dim>18</dim>
				</port>
			</output>
		</layer>
		<layer id="193" name="Constant_515055" type="Const" version="opset1">
			<data element_type="i8" shape="72, 18" offset="41688" size="1296" />
			<output>
				<port id="0" precision="I8">
					<dim>72</dim>
					<dim>18</dim>
				</port>
			</output>
		</layer>
		<layer id="194" name="Convert_515056" type="Convert" version="opset1">
			<data destination_type="f32" />
			<input>
				<port id="0" precision="I8">
					<dim>72</dim>
					<dim>18</dim>
				</port>
			</input>
			<output>
				<port id="1" precision="FP32">
					<dim>72</dim>
					<dim>18</dim>
				</port>
			</output>
		</layer>
		<layer id="195" name="Constant_515057" type="Const" version="opset1">
			<data element_type="f32" shape="72, 1" offset="42984" size="288" />
			<output>
				<port id="0" precision="FP32">
					<dim>72</dim>
					<dim>1</dim>
				</port>
			</output>
		</layer>
		<layer id="196" name="/model.4/conv/conv.5/fc/fc.2/Gemm/WithoutBiases/fq_weights_1" type="Multiply" version="opset1">
			<data auto_broadcast="numpy" />
			<input>
				<port id="0" precision="FP32">
					<dim>72</dim>
					<dim>18</dim>
				</port>
				<port id="1" precision="FP32">
					<dim>72</dim>
					<dim>1</dim>
				</port>
			</input>
			<output>
				<port id="2" precision="FP32">
					<dim>72</dim>
					<dim>18</dim>
				</port>
			</output>
		</layer>
		<layer id="197" name="/model.4/conv/conv.5/fc/fc.2/Gemm/WithoutBiases" type="MatMul" version="opset1">
			<data transpose_a="false" transpose_b="true" />
			<input>
				<port id="0" precision="FP32">
					<dim>1</dim>
					<dim>18</dim>
				</port>
				<port id="1" precision="FP32">
					<dim>72</dim>
					<dim>18</dim>
				</port>
			</input>
			<output>
				<port id="2" precision="FP32">
					<dim>1</dim>
					<dim>72</dim>
				</port>
			</output>
		</layer>
		<layer id="198" name="Constant_7121" type="Const" version="opset1">
			<data element_type="f32" shape="1, 72" offset="43272" size="288" />
			<output>
				<port id="0" precision="FP32">
					<dim>1</dim>
					<dim>72</dim>
				</port>
			</output>
		</layer>
		<layer id="199" name="/model.4/conv/conv.5/fc/fc.2/Gemm" type="Add" version="opset1">
			<data auto_broadcast="numpy" />
			<input>
				<port id="0" precision="FP32">
					<dim>1</dim>
					<dim>72</dim>
				</port>
				<port id="1" precision="FP32">
					<dim>1</dim>
					<dim>72</dim>
				</port>
			</input>
			<output>
				<port id="2" precision="FP32" names="/model.4/conv/conv.5/fc/fc.2/Gemm_output_0">
					<dim>1</dim>
					<dim>72</dim>
				</port>
			</output>
		</layer>
		<layer id="200" name="/model.4/conv/conv.5/fc/fc.3/Div" type="HSigmoid" version="opset5">
			<input>
				<port id="0" precision="FP32">
					<dim>1</dim>
					<dim>72</dim>
				</port>
			</input>
			<output>
				<port id="1" precision="FP32" names="/model.4/conv/conv.5/fc/fc.3/Div_output_0">
					<dim>1</dim>
					<dim>72</dim>
				</port>
			</output>
		</layer>
		<layer id="201" name="/model.4/conv/conv.5/Constant_1_output_0" type="Const" version="opset1">
			<data element_type="i64" shape="4" offset="43560" size="32" />
			<output>
				<port id="0" precision="I64" names="/model.4/conv/conv.5/Constant_1_output_0">
					<dim>4</dim>
				</port>
			</output>
		</layer>
		<layer id="202" name="/model.4/conv/conv.5/Reshape_1" type="Reshape" version="opset1">
			<data special_zero="true" />
			<input>
				<port id="0" precision="FP32">
					<dim>1</dim>
					<dim>72</dim>
				</port>
				<port id="1" precision="I64">
					<dim>4</dim>
				</port>
			</input>
			<output>
				<port id="2" precision="FP32" names="/model.4/conv/conv.5/Reshape_1_output_0">
					<dim>1</dim>
					<dim>72</dim>
					<dim>1</dim>
					<dim>1</dim>
				</port>
			</output>
		</layer>
		<layer id="203" name="/model.4/conv/conv.5/Mul" type="Multiply" version="opset1">
			<data auto_broadcast="numpy" />
			<input>
				<port id="0" precision="FP32">
					<dim>1</dim>
					<dim>72</dim>
					<dim>52</dim>
					<dim>52</dim>
				</port>
				<port id="1" precision="FP32">
					<dim>1</dim>
					<dim>72</dim>
					<dim>1</dim>
					<dim>1</dim>
				</port>
			</input>
			<output>
				<port id="2" precision="FP32" names="/model.4/conv/conv.5/Mul_output_0">
					<dim>1</dim>
					<dim>72</dim>
					<dim>52</dim>
					<dim>52</dim>
				</port>
			</output>
		</layer>
		<layer id="204" name="/model.4/conv/conv.6/Relu" type="ReLU" version="opset1">
			<input>
				<port id="0" precision="FP32">
					<dim>1</dim>
					<dim>72</dim>
					<dim>52</dim>
					<dim>52</dim>
				</port>
			</input>
			<output>
				<port id="1" precision="FP32" names="/model.4/conv/conv.6/Relu_output_0">
					<dim>1</dim>
					<dim>72</dim>
					<dim>52</dim>
					<dim>52</dim>
				</port>
			</output>
		</layer>
		<layer id="205" name="/model.4/conv/conv.6/Relu/fq_output_0/input_low" type="Const" version="opset1">
			<data element_type="f32" shape="" offset="28392" size="4" />
			<output>
				<port id="0" precision="FP32" />
			</output>
		</layer>
		<layer id="206" name="/model.4/conv/conv.6/Relu/fq_output_0/input_high" type="Const" version="opset1">
			<data element_type="f32" shape="" offset="43592" size="4" />
			<output>
				<port id="0" precision="FP32" />
			</output>
		</layer>
		<layer id="207" name="/model.4/conv/conv.6/Relu/fq_output_0/output_low" type="Const" version="opset1">
			<data element_type="f32" shape="" offset="28392" size="4" />
			<output>
				<port id="0" precision="FP32" />
			</output>
		</layer>
		<layer id="208" name="/model.4/conv/conv.6/Relu/fq_output_0/output_high" type="Const" version="opset1">
			<data element_type="f32" shape="" offset="43592" size="4" />
			<output>
				<port id="0" precision="FP32" />
			</output>
		</layer>
		<layer id="209" name="/model.4/conv/conv.6/Relu/fq_output_0" type="FakeQuantize" version="opset1">
			<data levels="256" auto_broadcast="numpy" />
			<input>
				<port id="0" precision="FP32">
					<dim>1</dim>
					<dim>72</dim>
					<dim>52</dim>
					<dim>52</dim>
				</port>
				<port id="1" precision="FP32" />
				<port id="2" precision="FP32" />
				<port id="3" precision="FP32" />
				<port id="4" precision="FP32" />
			</input>
			<output>
				<port id="5" precision="FP32">
					<dim>1</dim>
					<dim>72</dim>
					<dim>52</dim>
					<dim>52</dim>
				</port>
			</output>
		</layer>
		<layer id="210" name="Constant_515059" type="Const" version="opset1">
			<data element_type="i8" shape="16, 72, 1, 1" offset="43596" size="1152" />
			<output>
				<port id="0" precision="I8">
					<dim>16</dim>
					<dim>72</dim>
					<dim>1</dim>
					<dim>1</dim>
				</port>
			</output>
		</layer>
		<layer id="211" name="Convert_515060" type="Convert" version="opset1">
			<data destination_type="f32" />
			<input>
				<port id="0" precision="I8">
					<dim>16</dim>
					<dim>72</dim>
					<dim>1</dim>
					<dim>1</dim>
				</port>
			</input>
			<output>
				<port id="1" precision="FP32">
					<dim>16</dim>
					<dim>72</dim>
					<dim>1</dim>
					<dim>1</dim>
				</port>
			</output>
		</layer>
		<layer id="212" name="Constant_515061" type="Const" version="opset1">
			<data element_type="f32" shape="16, 1, 1, 1" offset="44748" size="64" />
			<output>
				<port id="0" precision="FP32">
					<dim>16</dim>
					<dim>1</dim>
					<dim>1</dim>
					<dim>1</dim>
				</port>
			</output>
		</layer>
		<layer id="213" name="/model.4/conv/conv.7/Conv/WithoutBiases/fq_weights_1" type="Multiply" version="opset1">
			<data auto_broadcast="numpy" />
			<input>
				<port id="0" precision="FP32">
					<dim>16</dim>
					<dim>72</dim>
					<dim>1</dim>
					<dim>1</dim>
				</port>
				<port id="1" precision="FP32">
					<dim>16</dim>
					<dim>1</dim>
					<dim>1</dim>
					<dim>1</dim>
				</port>
			</input>
			<output>
				<port id="2" precision="FP32">
					<dim>16</dim>
					<dim>72</dim>
					<dim>1</dim>
					<dim>1</dim>
				</port>
			</output>
		</layer>
		<layer id="214" name="/model.4/conv/conv.7/Conv/WithoutBiases" type="Convolution" version="opset1">
			<data strides="1, 1" dilations="1, 1" pads_begin="0, 0" pads_end="0, 0" auto_pad="explicit" />
			<input>
				<port id="0" precision="FP32">
					<dim>1</dim>
					<dim>72</dim>
					<dim>52</dim>
					<dim>52</dim>
				</port>
				<port id="1" precision="FP32">
					<dim>16</dim>
					<dim>72</dim>
					<dim>1</dim>
					<dim>1</dim>
				</port>
			</input>
			<output>
				<port id="2" precision="FP32">
					<dim>1</dim>
					<dim>16</dim>
					<dim>52</dim>
					<dim>52</dim>
				</port>
			</output>
		</layer>
		<layer id="215" name="Reshape_687" type="Const" version="opset1">
			<data element_type="f32" shape="1, 16, 1, 1" offset="44812" size="64" />
			<output>
				<port id="0" precision="FP32">
					<dim>1</dim>
					<dim>16</dim>
					<dim>1</dim>
					<dim>1</dim>
				</port>
			</output>
		</layer>
		<layer id="216" name="/model.4/conv/conv.7/Conv" type="Add" version="opset1">
			<data auto_broadcast="numpy" />
			<input>
				<port id="0" precision="FP32">
					<dim>1</dim>
					<dim>16</dim>
					<dim>52</dim>
					<dim>52</dim>
				</port>
				<port id="1" precision="FP32">
					<dim>1</dim>
					<dim>16</dim>
					<dim>1</dim>
					<dim>1</dim>
				</port>
			</input>
			<output>
				<port id="2" precision="FP32" names="/model.4/conv/conv.7/Conv_output_0">
					<dim>1</dim>
					<dim>16</dim>
					<dim>52</dim>
					<dim>52</dim>
				</port>
			</output>
		</layer>
		<layer id="217" name="/model.4/conv/conv.7/Conv/fq_output_0/input_low" type="Const" version="opset1">
			<data element_type="f32" shape="" offset="44876" size="4" />
			<output>
				<port id="0" precision="FP32" />
			</output>
		</layer>
		<layer id="218" name="/model.4/conv/conv.7/Conv/fq_output_0/input_high" type="Const" version="opset1">
			<data element_type="f32" shape="" offset="44880" size="4" />
			<output>
				<port id="0" precision="FP32" />
			</output>
		</layer>
		<layer id="219" name="/model.4/conv/conv.7/Conv/fq_output_0/output_low" type="Const" version="opset1">
			<data element_type="f32" shape="" offset="44876" size="4" />
			<output>
				<port id="0" precision="FP32" />
			</output>
		</layer>
		<layer id="220" name="/model.4/conv/conv.7/Conv/fq_output_0/output_high" type="Const" version="opset1">
			<data element_type="f32" shape="" offset="44880" size="4" />
			<output>
				<port id="0" precision="FP32" />
			</output>
		</layer>
		<layer id="221" name="/model.4/conv/conv.7/Conv/fq_output_0" type="FakeQuantize" version="opset1">
			<data levels="256" auto_broadcast="numpy" />
			<input>
				<port id="0" precision="FP32">
					<dim>1</dim>
					<dim>16</dim>
					<dim>52</dim>
					<dim>52</dim>
				</port>
				<port id="1" precision="FP32" />
				<port id="2" precision="FP32" />
				<port id="3" precision="FP32" />
				<port id="4" precision="FP32" />
			</input>
			<output>
				<port id="5" precision="FP32">
					<dim>1</dim>
					<dim>16</dim>
					<dim>52</dim>
					<dim>52</dim>
				</port>
			</output>
		</layer>
		<layer id="222" name="Constant_515063" type="Const" version="opset1">
			<data element_type="i8" shape="120, 16, 1, 1" offset="44884" size="1920" />
			<output>
				<port id="0" precision="I8">
					<dim>120</dim>
					<dim>16</dim>
					<dim>1</dim>
					<dim>1</dim>
				</port>
			</output>
		</layer>
		<layer id="223" name="Convert_515064" type="Convert" version="opset1">
			<data destination_type="f32" />
			<input>
				<port id="0" precision="I8">
					<dim>120</dim>
					<dim>16</dim>
					<dim>1</dim>
					<dim>1</dim>
				</port>
			</input>
			<output>
				<port id="1" precision="FP32">
					<dim>120</dim>
					<dim>16</dim>
					<dim>1</dim>
					<dim>1</dim>
				</port>
			</output>
		</layer>
		<layer id="224" name="Constant_515065" type="Const" version="opset1">
			<data element_type="f32" shape="120, 1, 1, 1" offset="46804" size="480" />
			<output>
				<port id="0" precision="FP32">
					<dim>120</dim>
					<dim>1</dim>
					<dim>1</dim>
					<dim>1</dim>
				</port>
			</output>
		</layer>
		<layer id="225" name="/model.5/conv/conv.0/Conv/WithoutBiases/fq_weights_1" type="Multiply" version="opset1">
			<data auto_broadcast="numpy" />
			<input>
				<port id="0" precision="FP32">
					<dim>120</dim>
					<dim>16</dim>
					<dim>1</dim>
					<dim>1</dim>
				</port>
				<port id="1" precision="FP32">
					<dim>120</dim>
					<dim>1</dim>
					<dim>1</dim>
					<dim>1</dim>
				</port>
			</input>
			<output>
				<port id="2" precision="FP32">
					<dim>120</dim>
					<dim>16</dim>
					<dim>1</dim>
					<dim>1</dim>
				</port>
			</output>
		</layer>
		<layer id="226" name="/model.5/conv/conv.0/Conv/WithoutBiases" type="Convolution" version="opset1">
			<data strides="1, 1" dilations="1, 1" pads_begin="0, 0" pads_end="0, 0" auto_pad="explicit" />
			<input>
				<port id="0" precision="FP32">
					<dim>1</dim>
					<dim>16</dim>
					<dim>52</dim>
					<dim>52</dim>
				</port>
				<port id="1" precision="FP32">
					<dim>120</dim>
					<dim>16</dim>
					<dim>1</dim>
					<dim>1</dim>
				</port>
			</input>
			<output>
				<port id="2" precision="FP32">
					<dim>1</dim>
					<dim>120</dim>
					<dim>52</dim>
					<dim>52</dim>
				</port>
			</output>
		</layer>
		<layer id="227" name="Reshape_703" type="Const" version="opset1">
			<data element_type="f32" shape="1, 120, 1, 1" offset="47284" size="480" />
			<output>
				<port id="0" precision="FP32">
					<dim>1</dim>
					<dim>120</dim>
					<dim>1</dim>
					<dim>1</dim>
				</port>
			</output>
		</layer>
		<layer id="228" name="/model.5/conv/conv.0/Conv" type="Add" version="opset1">
			<data auto_broadcast="numpy" />
			<input>
				<port id="0" precision="FP32">
					<dim>1</dim>
					<dim>120</dim>
					<dim>52</dim>
					<dim>52</dim>
				</port>
				<port id="1" precision="FP32">
					<dim>1</dim>
					<dim>120</dim>
					<dim>1</dim>
					<dim>1</dim>
				</port>
			</input>
			<output>
				<port id="2" precision="FP32" names="/model.5/conv/conv.0/Conv_output_0">
					<dim>1</dim>
					<dim>120</dim>
					<dim>52</dim>
					<dim>52</dim>
				</port>
			</output>
		</layer>
		<layer id="229" name="/model.5/conv/conv.2/Relu" type="ReLU" version="opset1">
			<input>
				<port id="0" precision="FP32">
					<dim>1</dim>
					<dim>120</dim>
					<dim>52</dim>
					<dim>52</dim>
				</port>
			</input>
			<output>
				<port id="1" precision="FP32" names="/model.5/conv/conv.2/Relu_output_0">
					<dim>1</dim>
					<dim>120</dim>
					<dim>52</dim>
					<dim>52</dim>
				</port>
			</output>
		</layer>
		<layer id="230" name="/model.5/conv/conv.2/Relu/fq_output_0/input_low" type="Const" version="opset1">
			<data element_type="f32" shape="1, 120, 1, 1" offset="47764" size="480" />
			<output>
				<port id="0" precision="FP32">
					<dim>1</dim>
					<dim>120</dim>
					<dim>1</dim>
					<dim>1</dim>
				</port>
			</output>
		</layer>
		<layer id="231" name="/model.5/conv/conv.2/Relu/fq_output_0/input_high" type="Const" version="opset1">
			<data element_type="f32" shape="1, 120, 1, 1" offset="48244" size="480" />
			<output>
				<port id="0" precision="FP32">
					<dim>1</dim>
					<dim>120</dim>
					<dim>1</dim>
					<dim>1</dim>
				</port>
			</output>
		</layer>
		<layer id="232" name="/model.5/conv/conv.2/Relu/fq_output_0/output_low" type="Const" version="opset1">
			<data element_type="f32" shape="1, 120, 1, 1" offset="47764" size="480" />
			<output>
				<port id="0" precision="FP32">
					<dim>1</dim>
					<dim>120</dim>
					<dim>1</dim>
					<dim>1</dim>
				</port>
			</output>
		</layer>
		<layer id="233" name="/model.5/conv/conv.2/Relu/fq_output_0/output_high" type="Const" version="opset1">
			<data element_type="f32" shape="1, 120, 1, 1" offset="48244" size="480" />
			<output>
				<port id="0" precision="FP32">
					<dim>1</dim>
					<dim>120</dim>
					<dim>1</dim>
					<dim>1</dim>
				</port>
			</output>
		</layer>
		<layer id="234" name="/model.5/conv/conv.2/Relu/fq_output_0" type="FakeQuantize" version="opset1">
			<data levels="256" auto_broadcast="numpy" />
			<input>
				<port id="0" precision="FP32">
					<dim>1</dim>
					<dim>120</dim>
					<dim>52</dim>
					<dim>52</dim>
				</port>
				<port id="1" precision="FP32">
					<dim>1</dim>
					<dim>120</dim>
					<dim>1</dim>
					<dim>1</dim>
				</port>
				<port id="2" precision="FP32">
					<dim>1</dim>
					<dim>120</dim>
					<dim>1</dim>
					<dim>1</dim>
				</port>
				<port id="3" precision="FP32">
					<dim>1</dim>
					<dim>120</dim>
					<dim>1</dim>
					<dim>1</dim>
				</port>
				<port id="4" precision="FP32">
					<dim>1</dim>
					<dim>120</dim>
					<dim>1</dim>
					<dim>1</dim>
				</port>
			</input>
			<output>
				<port id="5" precision="FP32">
					<dim>1</dim>
					<dim>120</dim>
					<dim>52</dim>
					<dim>52</dim>
				</port>
			</output>
		</layer>
		<layer id="235" name="Constant_515067" type="Const" version="opset1">
			<data element_type="i8" shape="120, 1, 1, 5, 5" offset="48724" size="3000" />
			<output>
				<port id="0" precision="I8">
					<dim>120</dim>
					<dim>1</dim>
					<dim>1</dim>
					<dim>5</dim>
					<dim>5</dim>
				</port>
			</output>
		</layer>
		<layer id="236" name="Convert_515068" type="Convert" version="opset1">
			<data destination_type="f32" />
			<input>
				<port id="0" precision="I8">
					<dim>120</dim>
					<dim>1</dim>
					<dim>1</dim>
					<dim>5</dim>
					<dim>5</dim>
				</port>
			</input>
			<output>
				<port id="1" precision="FP32">
					<dim>120</dim>
					<dim>1</dim>
					<dim>1</dim>
					<dim>5</dim>
					<dim>5</dim>
				</port>
			</output>
		</layer>
		<layer id="237" name="Constant_515069" type="Const" version="opset1">
			<data element_type="f32" shape="120, 1, 1, 1, 1" offset="51724" size="480" />
			<output>
				<port id="0" precision="FP32">
					<dim>120</dim>
					<dim>1</dim>
					<dim>1</dim>
					<dim>1</dim>
					<dim>1</dim>
				</port>
			</output>
		</layer>
		<layer id="238" name="/model.5/conv/conv.3/Conv/WithoutBiases/fq_weights_1" type="Multiply" version="opset1">
			<data auto_broadcast="numpy" />
			<input>
				<port id="0" precision="FP32">
					<dim>120</dim>
					<dim>1</dim>
					<dim>1</dim>
					<dim>5</dim>
					<dim>5</dim>
				</port>
				<port id="1" precision="FP32">
					<dim>120</dim>
					<dim>1</dim>
					<dim>1</dim>
					<dim>1</dim>
					<dim>1</dim>
				</port>
			</input>
			<output>
				<port id="2" precision="FP32">
					<dim>120</dim>
					<dim>1</dim>
					<dim>1</dim>
					<dim>5</dim>
					<dim>5</dim>
				</port>
			</output>
		</layer>
		<layer id="239" name="/model.5/conv/conv.3/Conv/WithoutBiases" type="GroupConvolution" version="opset1">
			<data strides="1, 1" pads_begin="2, 2" pads_end="2, 2" dilations="1, 1" auto_pad="explicit" />
			<input>
				<port id="0" precision="FP32">
					<dim>1</dim>
					<dim>120</dim>
					<dim>52</dim>
					<dim>52</dim>
				</port>
				<port id="1" precision="FP32">
					<dim>120</dim>
					<dim>1</dim>
					<dim>1</dim>
					<dim>5</dim>
					<dim>5</dim>
				</port>
			</input>
			<output>
				<port id="2" precision="FP32">
					<dim>1</dim>
					<dim>120</dim>
					<dim>52</dim>
					<dim>52</dim>
				</port>
			</output>
		</layer>
		<layer id="240" name="Reshape_767" type="Const" version="opset1">
			<data element_type="f32" shape="1, 120, 1, 1" offset="52204" size="480" />
			<output>
				<port id="0" precision="FP32">
					<dim>1</dim>
					<dim>120</dim>
					<dim>1</dim>
					<dim>1</dim>
				</port>
			</output>
		</layer>
		<layer id="241" name="/model.5/conv/conv.3/Conv" type="Add" version="opset1">
			<data auto_broadcast="numpy" />
			<input>
				<port id="0" precision="FP32">
					<dim>1</dim>
					<dim>120</dim>
					<dim>52</dim>
					<dim>52</dim>
				</port>
				<port id="1" precision="FP32">
					<dim>1</dim>
					<dim>120</dim>
					<dim>1</dim>
					<dim>1</dim>
				</port>
			</input>
			<output>
				<port id="2" precision="FP32" names="/model.5/conv/conv.3/Conv_output_0">
					<dim>1</dim>
					<dim>120</dim>
					<dim>52</dim>
					<dim>52</dim>
				</port>
			</output>
		</layer>
		<layer id="242" name="/model.5/conv/conv.5/avg_pool/GlobalAveragePool/fq_input_0/input_low" type="Const" version="opset1">
			<data element_type="f32" shape="" offset="52684" size="4" />
			<output>
				<port id="0" precision="FP32" />
			</output>
		</layer>
		<layer id="243" name="/model.5/conv/conv.5/avg_pool/GlobalAveragePool/fq_input_0/input_high" type="Const" version="opset1">
			<data element_type="f32" shape="" offset="52688" size="4" />
			<output>
				<port id="0" precision="FP32" />
			</output>
		</layer>
		<layer id="244" name="/model.5/conv/conv.5/avg_pool/GlobalAveragePool/fq_input_0/output_low" type="Const" version="opset1">
			<data element_type="f32" shape="" offset="52684" size="4" />
			<output>
				<port id="0" precision="FP32" />
			</output>
		</layer>
		<layer id="245" name="/model.5/conv/conv.5/avg_pool/GlobalAveragePool/fq_input_0/output_high" type="Const" version="opset1">
			<data element_type="f32" shape="" offset="52688" size="4" />
			<output>
				<port id="0" precision="FP32" />
			</output>
		</layer>
		<layer id="246" name="/model.5/conv/conv.5/avg_pool/GlobalAveragePool/fq_input_0" type="FakeQuantize" version="opset1">
			<data levels="256" auto_broadcast="numpy" />
			<input>
				<port id="0" precision="FP32">
					<dim>1</dim>
					<dim>120</dim>
					<dim>52</dim>
					<dim>52</dim>
				</port>
				<port id="1" precision="FP32" />
				<port id="2" precision="FP32" />
				<port id="3" precision="FP32" />
				<port id="4" precision="FP32" />
			</input>
			<output>
				<port id="5" precision="FP32">
					<dim>1</dim>
					<dim>120</dim>
					<dim>52</dim>
					<dim>52</dim>
				</port>
			</output>
		</layer>
		<layer id="247" name="Range_777" type="Const" version="opset1">
			<data element_type="i64" shape="2" offset="40204" size="16" />
			<output>
				<port id="0" precision="I64">
					<dim>2</dim>
				</port>
			</output>
		</layer>
		<layer id="248" name="/model.5/conv/conv.5/avg_pool/GlobalAveragePool" type="ReduceMean" version="opset1">
			<data keep_dims="true" />
			<input>
				<port id="0" precision="FP32">
					<dim>1</dim>
					<dim>120</dim>
					<dim>52</dim>
					<dim>52</dim>
				</port>
				<port id="1" precision="I64">
					<dim>2</dim>
				</port>
			</input>
			<output>
				<port id="2" precision="FP32" names="/model.5/conv/conv.5/avg_pool/GlobalAveragePool_output_0">
					<dim>1</dim>
					<dim>120</dim>
					<dim>1</dim>
					<dim>1</dim>
				</port>
			</output>
		</layer>
		<layer id="249" name="/model.5/conv/conv.5/avg_pool/GlobalAveragePool/fq_output_0/input_low" type="Const" version="opset1">
			<data element_type="f32" shape="" offset="52692" size="4" />
			<output>
				<port id="0" precision="FP32" />
			</output>
		</layer>
		<layer id="250" name="/model.5/conv/conv.5/avg_pool/GlobalAveragePool/fq_output_0/input_high" type="Const" version="opset1">
			<data element_type="f32" shape="" offset="52696" size="4" />
			<output>
				<port id="0" precision="FP32" />
			</output>
		</layer>
		<layer id="251" name="/model.5/conv/conv.5/avg_pool/GlobalAveragePool/fq_output_0/output_low" type="Const" version="opset1">
			<data element_type="f32" shape="" offset="52692" size="4" />
			<output>
				<port id="0" precision="FP32" />
			</output>
		</layer>
		<layer id="252" name="/model.5/conv/conv.5/avg_pool/GlobalAveragePool/fq_output_0/output_high" type="Const" version="opset1">
			<data element_type="f32" shape="" offset="52696" size="4" />
			<output>
				<port id="0" precision="FP32" />
			</output>
		</layer>
		<layer id="253" name="/model.5/conv/conv.5/avg_pool/GlobalAveragePool/fq_output_0" type="FakeQuantize" version="opset1">
			<data levels="256" auto_broadcast="numpy" />
			<input>
				<port id="0" precision="FP32">
					<dim>1</dim>
					<dim>120</dim>
					<dim>1</dim>
					<dim>1</dim>
				</port>
				<port id="1" precision="FP32" />
				<port id="2" precision="FP32" />
				<port id="3" precision="FP32" />
				<port id="4" precision="FP32" />
			</input>
			<output>
				<port id="5" precision="FP32">
					<dim>1</dim>
					<dim>120</dim>
					<dim>1</dim>
					<dim>1</dim>
				</port>
			</output>
		</layer>
		<layer id="254" name="/model.5/conv/conv.5/Constant_output_0" type="Const" version="opset1">
			<data element_type="i64" shape="2" offset="52700" size="16" />
			<output>
				<port id="0" precision="I64" names="/model.5/conv/conv.5/Constant_output_0">
					<dim>2</dim>
				</port>
			</output>
		</layer>
		<layer id="255" name="/model.5/conv/conv.5/Reshape" type="Reshape" version="opset1">
			<data special_zero="true" />
			<input>
				<port id="0" precision="FP32">
					<dim>1</dim>
					<dim>120</dim>
					<dim>1</dim>
					<dim>1</dim>
				</port>
				<port id="1" precision="I64">
					<dim>2</dim>
				</port>
			</input>
			<output>
				<port id="2" precision="FP32" names="/model.5/conv/conv.5/Reshape_output_0">
					<dim>1</dim>
					<dim>120</dim>
				</port>
			</output>
		</layer>
		<layer id="256" name="Constant_515071" type="Const" version="opset1">
			<data element_type="i8" shape="30, 120" offset="52716" size="3600" />
			<output>
				<port id="0" precision="I8">
					<dim>30</dim>
					<dim>120</dim>
				</port>
			</output>
		</layer>
		<layer id="257" name="Convert_515072" type="Convert" version="opset1">
			<data destination_type="f32" />
			<input>
				<port id="0" precision="I8">
					<dim>30</dim>
					<dim>120</dim>
				</port>
			</input>
			<output>
				<port id="1" precision="FP32">
					<dim>30</dim>
					<dim>120</dim>
				</port>
			</output>
		</layer>
		<layer id="258" name="Constant_515073" type="Const" version="opset1">
			<data element_type="f32" shape="30, 1" offset="56316" size="120" />
			<output>
				<port id="0" precision="FP32">
					<dim>30</dim>
					<dim>1</dim>
				</port>
			</output>
		</layer>
		<layer id="259" name="/model.5/conv/conv.5/fc/fc.0/Gemm/WithoutBiases/fq_weights_1" type="Multiply" version="opset1">
			<data auto_broadcast="numpy" />
			<input>
				<port id="0" precision="FP32">
					<dim>30</dim>
					<dim>120</dim>
				</port>
				<port id="1" precision="FP32">
					<dim>30</dim>
					<dim>1</dim>
				</port>
			</input>
			<output>
				<port id="2" precision="FP32">
					<dim>30</dim>
					<dim>120</dim>
				</port>
			</output>
		</layer>
		<layer id="260" name="/model.5/conv/conv.5/fc/fc.0/Gemm/WithoutBiases" type="MatMul" version="opset1">
			<data transpose_a="false" transpose_b="true" />
			<input>
				<port id="0" precision="FP32">
					<dim>1</dim>
					<dim>120</dim>
				</port>
				<port id="1" precision="FP32">
					<dim>30</dim>
					<dim>120</dim>
				</port>
			</input>
			<output>
				<port id="2" precision="FP32">
					<dim>1</dim>
					<dim>30</dim>
				</port>
			</output>
		</layer>
		<layer id="261" name="Constant_7122" type="Const" version="opset1">
			<data element_type="f32" shape="1, 30" offset="56436" size="120" />
			<output>
				<port id="0" precision="FP32">
					<dim>1</dim>
					<dim>30</dim>
				</port>
			</output>
		</layer>
		<layer id="262" name="/model.5/conv/conv.5/fc/fc.0/Gemm" type="Add" version="opset1">
			<data auto_broadcast="numpy" />
			<input>
				<port id="0" precision="FP32">
					<dim>1</dim>
					<dim>30</dim>
				</port>
				<port id="1" precision="FP32">
					<dim>1</dim>
					<dim>30</dim>
				</port>
			</input>
			<output>
				<port id="2" precision="FP32" names="/model.5/conv/conv.5/fc/fc.0/Gemm_output_0">
					<dim>1</dim>
					<dim>30</dim>
				</port>
			</output>
		</layer>
		<layer id="263" name="/model.5/conv/conv.5/fc/fc.1/Relu" type="ReLU" version="opset1">
			<input>
				<port id="0" precision="FP32">
					<dim>1</dim>
					<dim>30</dim>
				</port>
			</input>
			<output>
				<port id="1" precision="FP32" names="/model.5/conv/conv.5/fc/fc.1/Relu_output_0">
					<dim>1</dim>
					<dim>30</dim>
				</port>
			</output>
		</layer>
		<layer id="264" name="/model.5/conv/conv.5/fc/fc.1/Relu/fq_output_0/input_low" type="Const" version="opset1">
			<data element_type="f32" shape="" offset="28392" size="4" />
			<output>
				<port id="0" precision="FP32" />
			</output>
		</layer>
		<layer id="265" name="/model.5/conv/conv.5/fc/fc.1/Relu/fq_output_0/input_high" type="Const" version="opset1">
			<data element_type="f32" shape="" offset="56556" size="4" />
			<output>
				<port id="0" precision="FP32" />
			</output>
		</layer>
		<layer id="266" name="/model.5/conv/conv.5/fc/fc.1/Relu/fq_output_0/output_low" type="Const" version="opset1">
			<data element_type="f32" shape="" offset="28392" size="4" />
			<output>
				<port id="0" precision="FP32" />
			</output>
		</layer>
		<layer id="267" name="/model.5/conv/conv.5/fc/fc.1/Relu/fq_output_0/output_high" type="Const" version="opset1">
			<data element_type="f32" shape="" offset="56556" size="4" />
			<output>
				<port id="0" precision="FP32" />
			</output>
		</layer>
		<layer id="268" name="/model.5/conv/conv.5/fc/fc.1/Relu/fq_output_0" type="FakeQuantize" version="opset1">
			<data levels="256" auto_broadcast="numpy" />
			<input>
				<port id="0" precision="FP32">
					<dim>1</dim>
					<dim>30</dim>
				</port>
				<port id="1" precision="FP32" />
				<port id="2" precision="FP32" />
				<port id="3" precision="FP32" />
				<port id="4" precision="FP32" />
			</input>
			<output>
				<port id="5" precision="FP32">
					<dim>1</dim>
					<dim>30</dim>
				</port>
			</output>
		</layer>
		<layer id="269" name="Constant_515075" type="Const" version="opset1">
			<data element_type="i8" shape="120, 30" offset="56560" size="3600" />
			<output>
				<port id="0" precision="I8">
					<dim>120</dim>
					<dim>30</dim>
				</port>
			</output>
		</layer>
		<layer id="270" name="Convert_515076" type="Convert" version="opset1">
			<data destination_type="f32" />
			<input>
				<port id="0" precision="I8">
					<dim>120</dim>
					<dim>30</dim>
				</port>
			</input>
			<output>
				<port id="1" precision="FP32">
					<dim>120</dim>
					<dim>30</dim>
				</port>
			</output>
		</layer>
		<layer id="271" name="Constant_515077" type="Const" version="opset1">
			<data element_type="f32" shape="120, 1" offset="60160" size="480" />
			<output>
				<port id="0" precision="FP32">
					<dim>120</dim>
					<dim>1</dim>
				</port>
			</output>
		</layer>
		<layer id="272" name="/model.5/conv/conv.5/fc/fc.2/Gemm/WithoutBiases/fq_weights_1" type="Multiply" version="opset1">
			<data auto_broadcast="numpy" />
			<input>
				<port id="0" precision="FP32">
					<dim>120</dim>
					<dim>30</dim>
				</port>
				<port id="1" precision="FP32">
					<dim>120</dim>
					<dim>1</dim>
				</port>
			</input>
			<output>
				<port id="2" precision="FP32">
					<dim>120</dim>
					<dim>30</dim>
				</port>
			</output>
		</layer>
		<layer id="273" name="/model.5/conv/conv.5/fc/fc.2/Gemm/WithoutBiases" type="MatMul" version="opset1">
			<data transpose_a="false" transpose_b="true" />
			<input>
				<port id="0" precision="FP32">
					<dim>1</dim>
					<dim>30</dim>
				</port>
				<port id="1" precision="FP32">
					<dim>120</dim>
					<dim>30</dim>
				</port>
			</input>
			<output>
				<port id="2" precision="FP32">
					<dim>1</dim>
					<dim>120</dim>
				</port>
			</output>
		</layer>
		<layer id="274" name="Constant_7123" type="Const" version="opset1">
			<data element_type="f32" shape="1, 120" offset="60640" size="480" />
			<output>
				<port id="0" precision="FP32">
					<dim>1</dim>
					<dim>120</dim>
				</port>
			</output>
		</layer>
		<layer id="275" name="/model.5/conv/conv.5/fc/fc.2/Gemm" type="Add" version="opset1">
			<data auto_broadcast="numpy" />
			<input>
				<port id="0" precision="FP32">
					<dim>1</dim>
					<dim>120</dim>
				</port>
				<port id="1" precision="FP32">
					<dim>1</dim>
					<dim>120</dim>
				</port>
			</input>
			<output>
				<port id="2" precision="FP32" names="/model.5/conv/conv.5/fc/fc.2/Gemm_output_0">
					<dim>1</dim>
					<dim>120</dim>
				</port>
			</output>
		</layer>
		<layer id="276" name="/model.5/conv/conv.5/fc/fc.3/Div" type="HSigmoid" version="opset5">
			<input>
				<port id="0" precision="FP32">
					<dim>1</dim>
					<dim>120</dim>
				</port>
			</input>
			<output>
				<port id="1" precision="FP32" names="/model.5/conv/conv.5/fc/fc.3/Div_output_0">
					<dim>1</dim>
					<dim>120</dim>
				</port>
			</output>
		</layer>
		<layer id="277" name="/model.5/conv/conv.5/Constant_1_output_0" type="Const" version="opset1">
			<data element_type="i64" shape="4" offset="61120" size="32" />
			<output>
				<port id="0" precision="I64" names="/model.5/conv/conv.5/Constant_1_output_0">
					<dim>4</dim>
				</port>
			</output>
		</layer>
		<layer id="278" name="/model.5/conv/conv.5/Reshape_1" type="Reshape" version="opset1">
			<data special_zero="true" />
			<input>
				<port id="0" precision="FP32">
					<dim>1</dim>
					<dim>120</dim>
				</port>
				<port id="1" precision="I64">
					<dim>4</dim>
				</port>
			</input>
			<output>
				<port id="2" precision="FP32" names="/model.5/conv/conv.5/Reshape_1_output_0">
					<dim>1</dim>
					<dim>120</dim>
					<dim>1</dim>
					<dim>1</dim>
				</port>
			</output>
		</layer>
		<layer id="279" name="/model.5/conv/conv.5/Mul" type="Multiply" version="opset1">
			<data auto_broadcast="numpy" />
			<input>
				<port id="0" precision="FP32">
					<dim>1</dim>
					<dim>120</dim>
					<dim>52</dim>
					<dim>52</dim>
				</port>
				<port id="1" precision="FP32">
					<dim>1</dim>
					<dim>120</dim>
					<dim>1</dim>
					<dim>1</dim>
				</port>
			</input>
			<output>
				<port id="2" precision="FP32" names="/model.5/conv/conv.5/Mul_output_0">
					<dim>1</dim>
					<dim>120</dim>
					<dim>52</dim>
					<dim>52</dim>
				</port>
			</output>
		</layer>
		<layer id="280" name="/model.5/conv/conv.6/Relu" type="ReLU" version="opset1">
			<input>
				<port id="0" precision="FP32">
					<dim>1</dim>
					<dim>120</dim>
					<dim>52</dim>
					<dim>52</dim>
				</port>
			</input>
			<output>
				<port id="1" precision="FP32" names="/model.5/conv/conv.6/Relu_output_0">
					<dim>1</dim>
					<dim>120</dim>
					<dim>52</dim>
					<dim>52</dim>
				</port>
			</output>
		</layer>
		<layer id="281" name="/model.5/conv/conv.6/Relu/fq_output_0/input_low" type="Const" version="opset1">
			<data element_type="f32" shape="" offset="28392" size="4" />
			<output>
				<port id="0" precision="FP32" />
			</output>
		</layer>
		<layer id="282" name="/model.5/conv/conv.6/Relu/fq_output_0/input_high" type="Const" version="opset1">
			<data element_type="f32" shape="" offset="61152" size="4" />
			<output>
				<port id="0" precision="FP32" />
			</output>
		</layer>
		<layer id="283" name="/model.5/conv/conv.6/Relu/fq_output_0/output_low" type="Const" version="opset1">
			<data element_type="f32" shape="" offset="28392" size="4" />
			<output>
				<port id="0" precision="FP32" />
			</output>
		</layer>
		<layer id="284" name="/model.5/conv/conv.6/Relu/fq_output_0/output_high" type="Const" version="opset1">
			<data element_type="f32" shape="" offset="61152" size="4" />
			<output>
				<port id="0" precision="FP32" />
			</output>
		</layer>
		<layer id="285" name="/model.5/conv/conv.6/Relu/fq_output_0" type="FakeQuantize" version="opset1">
			<data levels="256" auto_broadcast="numpy" />
			<input>
				<port id="0" precision="FP32">
					<dim>1</dim>
					<dim>120</dim>
					<dim>52</dim>
					<dim>52</dim>
				</port>
				<port id="1" precision="FP32" />
				<port id="2" precision="FP32" />
				<port id="3" precision="FP32" />
				<port id="4" precision="FP32" />
			</input>
			<output>
				<port id="5" precision="FP32">
					<dim>1</dim>
					<dim>120</dim>
					<dim>52</dim>
					<dim>52</dim>
				</port>
			</output>
		</layer>
		<layer id="286" name="Constant_515079" type="Const" version="opset1">
			<data element_type="i8" shape="16, 120, 1, 1" offset="61156" size="1920" />
			<output>
				<port id="0" precision="I8">
					<dim>16</dim>
					<dim>120</dim>
					<dim>1</dim>
					<dim>1</dim>
				</port>
			</output>
		</layer>
		<layer id="287" name="Convert_515080" type="Convert" version="opset1">
			<data destination_type="f32" />
			<input>
				<port id="0" precision="I8">
					<dim>16</dim>
					<dim>120</dim>
					<dim>1</dim>
					<dim>1</dim>
				</port>
			</input>
			<output>
				<port id="1" precision="FP32">
					<dim>16</dim>
					<dim>120</dim>
					<dim>1</dim>
					<dim>1</dim>
				</port>
			</output>
		</layer>
		<layer id="288" name="Constant_515081" type="Const" version="opset1">
			<data element_type="f32" shape="16, 1, 1, 1" offset="63076" size="64" />
			<output>
				<port id="0" precision="FP32">
					<dim>16</dim>
					<dim>1</dim>
					<dim>1</dim>
					<dim>1</dim>
				</port>
			</output>
		</layer>
		<layer id="289" name="/model.5/conv/conv.7/Conv/WithoutBiases/fq_weights_1" type="Multiply" version="opset1">
			<data auto_broadcast="numpy" />
			<input>
				<port id="0" precision="FP32">
					<dim>16</dim>
					<dim>120</dim>
					<dim>1</dim>
					<dim>1</dim>
				</port>
				<port id="1" precision="FP32">
					<dim>16</dim>
					<dim>1</dim>
					<dim>1</dim>
					<dim>1</dim>
				</port>
			</input>
			<output>
				<port id="2" precision="FP32">
					<dim>16</dim>
					<dim>120</dim>
					<dim>1</dim>
					<dim>1</dim>
				</port>
			</output>
		</layer>
		<layer id="290" name="/model.5/conv/conv.7/Conv/WithoutBiases" type="Convolution" version="opset1">
			<data strides="1, 1" dilations="1, 1" pads_begin="0, 0" pads_end="0, 0" auto_pad="explicit" />
			<input>
				<port id="0" precision="FP32">
					<dim>1</dim>
					<dim>120</dim>
					<dim>52</dim>
					<dim>52</dim>
				</port>
				<port id="1" precision="FP32">
					<dim>16</dim>
					<dim>120</dim>
					<dim>1</dim>
					<dim>1</dim>
				</port>
			</input>
			<output>
				<port id="2" precision="FP32">
					<dim>1</dim>
					<dim>16</dim>
					<dim>52</dim>
					<dim>52</dim>
				</port>
			</output>
		</layer>
		<layer id="291" name="Reshape_816" type="Const" version="opset1">
			<data element_type="f32" shape="1, 16, 1, 1" offset="63140" size="64" />
			<output>
				<port id="0" precision="FP32">
					<dim>1</dim>
					<dim>16</dim>
					<dim>1</dim>
					<dim>1</dim>
				</port>
			</output>
		</layer>
		<layer id="292" name="/model.5/conv/conv.7/Conv" type="Add" version="opset1">
			<data auto_broadcast="numpy" />
			<input>
				<port id="0" precision="FP32">
					<dim>1</dim>
					<dim>16</dim>
					<dim>52</dim>
					<dim>52</dim>
				</port>
				<port id="1" precision="FP32">
					<dim>1</dim>
					<dim>16</dim>
					<dim>1</dim>
					<dim>1</dim>
				</port>
			</input>
			<output>
				<port id="2" precision="FP32" names="/model.5/conv/conv.7/Conv_output_0">
					<dim>1</dim>
					<dim>16</dim>
					<dim>52</dim>
					<dim>52</dim>
				</port>
			</output>
		</layer>
		<layer id="293" name="/model.5/conv/conv.7/Conv/fq_output_0/input_low" type="Const" version="opset1">
			<data element_type="f32" shape="" offset="63204" size="4" />
			<output>
				<port id="0" precision="FP32" />
			</output>
		</layer>
		<layer id="294" name="/model.5/conv/conv.7/Conv/fq_output_0/input_high" type="Const" version="opset1">
			<data element_type="f32" shape="" offset="63208" size="4" />
			<output>
				<port id="0" precision="FP32" />
			</output>
		</layer>
		<layer id="295" name="/model.5/conv/conv.7/Conv/fq_output_0/output_low" type="Const" version="opset1">
			<data element_type="f32" shape="" offset="63204" size="4" />
			<output>
				<port id="0" precision="FP32" />
			</output>
		</layer>
		<layer id="296" name="/model.5/conv/conv.7/Conv/fq_output_0/output_high" type="Const" version="opset1">
			<data element_type="f32" shape="" offset="63208" size="4" />
			<output>
				<port id="0" precision="FP32" />
			</output>
		</layer>
		<layer id="297" name="/model.5/conv/conv.7/Conv/fq_output_0" type="FakeQuantize" version="opset1">
			<data levels="256" auto_broadcast="numpy" />
			<input>
				<port id="0" precision="FP32">
					<dim>1</dim>
					<dim>16</dim>
					<dim>52</dim>
					<dim>52</dim>
				</port>
				<port id="1" precision="FP32" />
				<port id="2" precision="FP32" />
				<port id="3" precision="FP32" />
				<port id="4" precision="FP32" />
			</input>
			<output>
				<port id="5" precision="FP32">
					<dim>1</dim>
					<dim>16</dim>
					<dim>52</dim>
					<dim>52</dim>
				</port>
			</output>
		</layer>
		<layer id="298" name="/model.5/Add" type="Add" version="opset1">
			<data auto_broadcast="numpy" />
			<input>
				<port id="0" precision="FP32">
					<dim>1</dim>
					<dim>16</dim>
					<dim>52</dim>
					<dim>52</dim>
				</port>
				<port id="1" precision="FP32">
					<dim>1</dim>
					<dim>16</dim>
					<dim>52</dim>
					<dim>52</dim>
				</port>
			</input>
			<output>
				<port id="2" precision="FP32" names="/model.5/Add_output_0">
					<dim>1</dim>
					<dim>16</dim>
					<dim>52</dim>
					<dim>52</dim>
				</port>
			</output>
		</layer>
		<layer id="299" name="/model.5/Add/fq_output_0/input_low" type="Const" version="opset1">
			<data element_type="f32" shape="" offset="63212" size="4" />
			<output>
				<port id="0" precision="FP32" />
			</output>
		</layer>
		<layer id="300" name="/model.5/Add/fq_output_0/input_high" type="Const" version="opset1">
			<data element_type="f32" shape="" offset="63216" size="4" />
			<output>
				<port id="0" precision="FP32" />
			</output>
		</layer>
		<layer id="301" name="/model.5/Add/fq_output_0/output_low" type="Const" version="opset1">
			<data element_type="f32" shape="" offset="63212" size="4" />
			<output>
				<port id="0" precision="FP32" />
			</output>
		</layer>
		<layer id="302" name="/model.5/Add/fq_output_0/output_high" type="Const" version="opset1">
			<data element_type="f32" shape="" offset="63216" size="4" />
			<output>
				<port id="0" precision="FP32" />
			</output>
		</layer>
		<layer id="303" name="/model.5/Add/fq_output_0" type="FakeQuantize" version="opset1">
			<data levels="256" auto_broadcast="numpy" />
			<input>
				<port id="0" precision="FP32">
					<dim>1</dim>
					<dim>16</dim>
					<dim>52</dim>
					<dim>52</dim>
				</port>
				<port id="1" precision="FP32" />
				<port id="2" precision="FP32" />
				<port id="3" precision="FP32" />
				<port id="4" precision="FP32" />
			</input>
			<output>
				<port id="5" precision="FP32">
					<dim>1</dim>
					<dim>16</dim>
					<dim>52</dim>
					<dim>52</dim>
				</port>
			</output>
		</layer>
		<layer id="304" name="Constant_515083" type="Const" version="opset1">
			<data element_type="i8" shape="120, 16, 1, 1" offset="63220" size="1920" />
			<output>
				<port id="0" precision="I8">
					<dim>120</dim>
					<dim>16</dim>
					<dim>1</dim>
					<dim>1</dim>
				</port>
			</output>
		</layer>
		<layer id="305" name="Convert_515084" type="Convert" version="opset1">
			<data destination_type="f32" />
			<input>
				<port id="0" precision="I8">
					<dim>120</dim>
					<dim>16</dim>
					<dim>1</dim>
					<dim>1</dim>
				</port>
			</input>
			<output>
				<port id="1" precision="FP32">
					<dim>120</dim>
					<dim>16</dim>
					<dim>1</dim>
					<dim>1</dim>
				</port>
			</output>
		</layer>
		<layer id="306" name="Constant_515085" type="Const" version="opset1">
			<data element_type="f32" shape="120, 1, 1, 1" offset="65140" size="480" />
			<output>
				<port id="0" precision="FP32">
					<dim>120</dim>
					<dim>1</dim>
					<dim>1</dim>
					<dim>1</dim>
				</port>
			</output>
		</layer>
		<layer id="307" name="/model.6/conv/conv.0/Conv/WithoutBiases/fq_weights_1" type="Multiply" version="opset1">
			<data auto_broadcast="numpy" />
			<input>
				<port id="0" precision="FP32">
					<dim>120</dim>
					<dim>16</dim>
					<dim>1</dim>
					<dim>1</dim>
				</port>
				<port id="1" precision="FP32">
					<dim>120</dim>
					<dim>1</dim>
					<dim>1</dim>
					<dim>1</dim>
				</port>
			</input>
			<output>
				<port id="2" precision="FP32">
					<dim>120</dim>
					<dim>16</dim>
					<dim>1</dim>
					<dim>1</dim>
				</port>
			</output>
		</layer>
		<layer id="308" name="/model.6/conv/conv.0/Conv/WithoutBiases" type="Convolution" version="opset1">
			<data strides="1, 1" dilations="1, 1" pads_begin="0, 0" pads_end="0, 0" auto_pad="explicit" />
			<input>
				<port id="0" precision="FP32">
					<dim>1</dim>
					<dim>16</dim>
					<dim>52</dim>
					<dim>52</dim>
				</port>
				<port id="1" precision="FP32">
					<dim>120</dim>
					<dim>16</dim>
					<dim>1</dim>
					<dim>1</dim>
				</port>
			</input>
			<output>
				<port id="2" precision="FP32">
					<dim>1</dim>
					<dim>120</dim>
					<dim>52</dim>
					<dim>52</dim>
				</port>
			</output>
		</layer>
		<layer id="309" name="Reshape_833" type="Const" version="opset1">
			<data element_type="f32" shape="1, 120, 1, 1" offset="65620" size="480" />
			<output>
				<port id="0" precision="FP32">
					<dim>1</dim>
					<dim>120</dim>
					<dim>1</dim>
					<dim>1</dim>
				</port>
			</output>
		</layer>
		<layer id="310" name="/model.6/conv/conv.0/Conv" type="Add" version="opset1">
			<data auto_broadcast="numpy" />
			<input>
				<port id="0" precision="FP32">
					<dim>1</dim>
					<dim>120</dim>
					<dim>52</dim>
					<dim>52</dim>
				</port>
				<port id="1" precision="FP32">
					<dim>1</dim>
					<dim>120</dim>
					<dim>1</dim>
					<dim>1</dim>
				</port>
			</input>
			<output>
				<port id="2" precision="FP32" names="/model.6/conv/conv.0/Conv_output_0">
					<dim>1</dim>
					<dim>120</dim>
					<dim>52</dim>
					<dim>52</dim>
				</port>
			</output>
		</layer>
		<layer id="311" name="/model.6/conv/conv.2/Relu" type="ReLU" version="opset1">
			<input>
				<port id="0" precision="FP32">
					<dim>1</dim>
					<dim>120</dim>
					<dim>52</dim>
					<dim>52</dim>
				</port>
			</input>
			<output>
				<port id="1" precision="FP32" names="/model.6/conv/conv.2/Relu_output_0">
					<dim>1</dim>
					<dim>120</dim>
					<dim>52</dim>
					<dim>52</dim>
				</port>
			</output>
		</layer>
		<layer id="312" name="/model.6/conv/conv.2/Relu/fq_output_0/input_low" type="Const" version="opset1">
			<data element_type="f32" shape="1, 120, 1, 1" offset="47764" size="480" />
			<output>
				<port id="0" precision="FP32">
					<dim>1</dim>
					<dim>120</dim>
					<dim>1</dim>
					<dim>1</dim>
				</port>
			</output>
		</layer>
		<layer id="313" name="/model.6/conv/conv.2/Relu/fq_output_0/input_high" type="Const" version="opset1">
			<data element_type="f32" shape="1, 120, 1, 1" offset="66100" size="480" />
			<output>
				<port id="0" precision="FP32">
					<dim>1</dim>
					<dim>120</dim>
					<dim>1</dim>
					<dim>1</dim>
				</port>
			</output>
		</layer>
		<layer id="314" name="/model.6/conv/conv.2/Relu/fq_output_0/output_low" type="Const" version="opset1">
			<data element_type="f32" shape="1, 120, 1, 1" offset="47764" size="480" />
			<output>
				<port id="0" precision="FP32">
					<dim>1</dim>
					<dim>120</dim>
					<dim>1</dim>
					<dim>1</dim>
				</port>
			</output>
		</layer>
		<layer id="315" name="/model.6/conv/conv.2/Relu/fq_output_0/output_high" type="Const" version="opset1">
			<data element_type="f32" shape="1, 120, 1, 1" offset="66100" size="480" />
			<output>
				<port id="0" precision="FP32">
					<dim>1</dim>
					<dim>120</dim>
					<dim>1</dim>
					<dim>1</dim>
				</port>
			</output>
		</layer>
		<layer id="316" name="/model.6/conv/conv.2/Relu/fq_output_0" type="FakeQuantize" version="opset1">
			<data levels="256" auto_broadcast="numpy" />
			<input>
				<port id="0" precision="FP32">
					<dim>1</dim>
					<dim>120</dim>
					<dim>52</dim>
					<dim>52</dim>
				</port>
				<port id="1" precision="FP32">
					<dim>1</dim>
					<dim>120</dim>
					<dim>1</dim>
					<dim>1</dim>
				</port>
				<port id="2" precision="FP32">
					<dim>1</dim>
					<dim>120</dim>
					<dim>1</dim>
					<dim>1</dim>
				</port>
				<port id="3" precision="FP32">
					<dim>1</dim>
					<dim>120</dim>
					<dim>1</dim>
					<dim>1</dim>
				</port>
				<port id="4" precision="FP32">
					<dim>1</dim>
					<dim>120</dim>
					<dim>1</dim>
					<dim>1</dim>
				</port>
			</input>
			<output>
				<port id="5" precision="FP32">
					<dim>1</dim>
					<dim>120</dim>
					<dim>52</dim>
					<dim>52</dim>
				</port>
			</output>
		</layer>
		<layer id="317" name="Constant_515087" type="Const" version="opset1">
			<data element_type="i8" shape="120, 1, 1, 5, 5" offset="66580" size="3000" />
			<output>
				<port id="0" precision="I8">
					<dim>120</dim>
					<dim>1</dim>
					<dim>1</dim>
					<dim>5</dim>
					<dim>5</dim>
				</port>
			</output>
		</layer>
		<layer id="318" name="Convert_515088" type="Convert" version="opset1">
			<data destination_type="f32" />
			<input>
				<port id="0" precision="I8">
					<dim>120</dim>
					<dim>1</dim>
					<dim>1</dim>
					<dim>5</dim>
					<dim>5</dim>
				</port>
			</input>
			<output>
				<port id="1" precision="FP32">
					<dim>120</dim>
					<dim>1</dim>
					<dim>1</dim>
					<dim>5</dim>
					<dim>5</dim>
				</port>
			</output>
		</layer>
		<layer id="319" name="Constant_515089" type="Const" version="opset1">
			<data element_type="f32" shape="120, 1, 1, 1, 1" offset="69580" size="480" />
			<output>
				<port id="0" precision="FP32">
					<dim>120</dim>
					<dim>1</dim>
					<dim>1</dim>
					<dim>1</dim>
					<dim>1</dim>
				</port>
			</output>
		</layer>
		<layer id="320" name="/model.6/conv/conv.3/Conv/WithoutBiases/fq_weights_1" type="Multiply" version="opset1">
			<data auto_broadcast="numpy" />
			<input>
				<port id="0" precision="FP32">
					<dim>120</dim>
					<dim>1</dim>
					<dim>1</dim>
					<dim>5</dim>
					<dim>5</dim>
				</port>
				<port id="1" precision="FP32">
					<dim>120</dim>
					<dim>1</dim>
					<dim>1</dim>
					<dim>1</dim>
					<dim>1</dim>
				</port>
			</input>
			<output>
				<port id="2" precision="FP32">
					<dim>120</dim>
					<dim>1</dim>
					<dim>1</dim>
					<dim>5</dim>
					<dim>5</dim>
				</port>
			</output>
		</layer>
		<layer id="321" name="/model.6/conv/conv.3/Conv/WithoutBiases" type="GroupConvolution" version="opset1">
			<data strides="1, 1" pads_begin="2, 2" pads_end="2, 2" dilations="1, 1" auto_pad="explicit" />
			<input>
				<port id="0" precision="FP32">
					<dim>1</dim>
					<dim>120</dim>
					<dim>52</dim>
					<dim>52</dim>
				</port>
				<port id="1" precision="FP32">
					<dim>120</dim>
					<dim>1</dim>
					<dim>1</dim>
					<dim>5</dim>
					<dim>5</dim>
				</port>
			</input>
			<output>
				<port id="2" precision="FP32">
					<dim>1</dim>
					<dim>120</dim>
					<dim>52</dim>
					<dim>52</dim>
				</port>
			</output>
		</layer>
		<layer id="322" name="Reshape_897" type="Const" version="opset1">
			<data element_type="f32" shape="1, 120, 1, 1" offset="70060" size="480" />
			<output>
				<port id="0" precision="FP32">
					<dim>1</dim>
					<dim>120</dim>
					<dim>1</dim>
					<dim>1</dim>
				</port>
			</output>
		</layer>
		<layer id="323" name="/model.6/conv/conv.3/Conv" type="Add" version="opset1">
			<data auto_broadcast="numpy" />
			<input>
				<port id="0" precision="FP32">
					<dim>1</dim>
					<dim>120</dim>
					<dim>52</dim>
					<dim>52</dim>
				</port>
				<port id="1" precision="FP32">
					<dim>1</dim>
					<dim>120</dim>
					<dim>1</dim>
					<dim>1</dim>
				</port>
			</input>
			<output>
				<port id="2" precision="FP32" names="/model.6/conv/conv.3/Conv_output_0">
					<dim>1</dim>
					<dim>120</dim>
					<dim>52</dim>
					<dim>52</dim>
				</port>
			</output>
		</layer>
		<layer id="324" name="/model.6/conv/conv.5/avg_pool/GlobalAveragePool/fq_input_0/input_low" type="Const" version="opset1">
			<data element_type="f32" shape="" offset="70540" size="4" />
			<output>
				<port id="0" precision="FP32" />
			</output>
		</layer>
		<layer id="325" name="/model.6/conv/conv.5/avg_pool/GlobalAveragePool/fq_input_0/input_high" type="Const" version="opset1">
			<data element_type="f32" shape="" offset="70544" size="4" />
			<output>
				<port id="0" precision="FP32" />
			</output>
		</layer>
		<layer id="326" name="/model.6/conv/conv.5/avg_pool/GlobalAveragePool/fq_input_0/output_low" type="Const" version="opset1">
			<data element_type="f32" shape="" offset="70540" size="4" />
			<output>
				<port id="0" precision="FP32" />
			</output>
		</layer>
		<layer id="327" name="/model.6/conv/conv.5/avg_pool/GlobalAveragePool/fq_input_0/output_high" type="Const" version="opset1">
			<data element_type="f32" shape="" offset="70544" size="4" />
			<output>
				<port id="0" precision="FP32" />
			</output>
		</layer>
		<layer id="328" name="/model.6/conv/conv.5/avg_pool/GlobalAveragePool/fq_input_0" type="FakeQuantize" version="opset1">
			<data levels="256" auto_broadcast="numpy" />
			<input>
				<port id="0" precision="FP32">
					<dim>1</dim>
					<dim>120</dim>
					<dim>52</dim>
					<dim>52</dim>
				</port>
				<port id="1" precision="FP32" />
				<port id="2" precision="FP32" />
				<port id="3" precision="FP32" />
				<port id="4" precision="FP32" />
			</input>
			<output>
				<port id="5" precision="FP32">
					<dim>1</dim>
					<dim>120</dim>
					<dim>52</dim>
					<dim>52</dim>
				</port>
			</output>
		</layer>
		<layer id="329" name="Range_907" type="Const" version="opset1">
			<data element_type="i64" shape="2" offset="40204" size="16" />
			<output>
				<port id="0" precision="I64">
					<dim>2</dim>
				</port>
			</output>
		</layer>
		<layer id="330" name="/model.6/conv/conv.5/avg_pool/GlobalAveragePool" type="ReduceMean" version="opset1">
			<data keep_dims="true" />
			<input>
				<port id="0" precision="FP32">
					<dim>1</dim>
					<dim>120</dim>
					<dim>52</dim>
					<dim>52</dim>
				</port>
				<port id="1" precision="I64">
					<dim>2</dim>
				</port>
			</input>
			<output>
				<port id="2" precision="FP32" names="/model.6/conv/conv.5/avg_pool/GlobalAveragePool_output_0">
					<dim>1</dim>
					<dim>120</dim>
					<dim>1</dim>
					<dim>1</dim>
				</port>
			</output>
		</layer>
		<layer id="331" name="/model.6/conv/conv.5/avg_pool/GlobalAveragePool/fq_output_0/input_low" type="Const" version="opset1">
			<data element_type="f32" shape="" offset="70548" size="4" />
			<output>
				<port id="0" precision="FP32" />
			</output>
		</layer>
		<layer id="332" name="/model.6/conv/conv.5/avg_pool/GlobalAveragePool/fq_output_0/input_high" type="Const" version="opset1">
			<data element_type="f32" shape="" offset="70552" size="4" />
			<output>
				<port id="0" precision="FP32" />
			</output>
		</layer>
		<layer id="333" name="/model.6/conv/conv.5/avg_pool/GlobalAveragePool/fq_output_0/output_low" type="Const" version="opset1">
			<data element_type="f32" shape="" offset="70548" size="4" />
			<output>
				<port id="0" precision="FP32" />
			</output>
		</layer>
		<layer id="334" name="/model.6/conv/conv.5/avg_pool/GlobalAveragePool/fq_output_0/output_high" type="Const" version="opset1">
			<data element_type="f32" shape="" offset="70552" size="4" />
			<output>
				<port id="0" precision="FP32" />
			</output>
		</layer>
		<layer id="335" name="/model.6/conv/conv.5/avg_pool/GlobalAveragePool/fq_output_0" type="FakeQuantize" version="opset1">
			<data levels="256" auto_broadcast="numpy" />
			<input>
				<port id="0" precision="FP32">
					<dim>1</dim>
					<dim>120</dim>
					<dim>1</dim>
					<dim>1</dim>
				</port>
				<port id="1" precision="FP32" />
				<port id="2" precision="FP32" />
				<port id="3" precision="FP32" />
				<port id="4" precision="FP32" />
			</input>
			<output>
				<port id="5" precision="FP32">
					<dim>1</dim>
					<dim>120</dim>
					<dim>1</dim>
					<dim>1</dim>
				</port>
			</output>
		</layer>
		<layer id="336" name="/model.6/conv/conv.5/Reshape" type="Reshape" version="opset1">
			<data special_zero="true" />
			<input>
				<port id="0" precision="FP32">
					<dim>1</dim>
					<dim>120</dim>
					<dim>1</dim>
					<dim>1</dim>
				</port>
				<port id="1" precision="I64">
					<dim>2</dim>
				</port>
			</input>
			<output>
				<port id="2" precision="FP32" names="/model.6/conv/conv.5/Reshape_output_0">
					<dim>1</dim>
					<dim>120</dim>
				</port>
			</output>
		</layer>
		<layer id="337" name="Constant_515091" type="Const" version="opset1">
			<data element_type="i8" shape="30, 120" offset="70556" size="3600" />
			<output>
				<port id="0" precision="I8">
					<dim>30</dim>
					<dim>120</dim>
				</port>
			</output>
		</layer>
		<layer id="338" name="Convert_515092" type="Convert" version="opset1">
			<data destination_type="f32" />
			<input>
				<port id="0" precision="I8">
					<dim>30</dim>
					<dim>120</dim>
				</port>
			</input>
			<output>
				<port id="1" precision="FP32">
					<dim>30</dim>
					<dim>120</dim>
				</port>
			</output>
		</layer>
		<layer id="339" name="Constant_515093" type="Const" version="opset1">
			<data element_type="f32" shape="30, 1" offset="74156" size="120" />
			<output>
				<port id="0" precision="FP32">
					<dim>30</dim>
					<dim>1</dim>
				</port>
			</output>
		</layer>
		<layer id="340" name="/model.6/conv/conv.5/fc/fc.0/Gemm/WithoutBiases/fq_weights_1" type="Multiply" version="opset1">
			<data auto_broadcast="numpy" />
			<input>
				<port id="0" precision="FP32">
					<dim>30</dim>
					<dim>120</dim>
				</port>
				<port id="1" precision="FP32">
					<dim>30</dim>
					<dim>1</dim>
				</port>
			</input>
			<output>
				<port id="2" precision="FP32">
					<dim>30</dim>
					<dim>120</dim>
				</port>
			</output>
		</layer>
		<layer id="341" name="/model.6/conv/conv.5/fc/fc.0/Gemm/WithoutBiases" type="MatMul" version="opset1">
			<data transpose_a="false" transpose_b="true" />
			<input>
				<port id="0" precision="FP32">
					<dim>1</dim>
					<dim>120</dim>
				</port>
				<port id="1" precision="FP32">
					<dim>30</dim>
					<dim>120</dim>
				</port>
			</input>
			<output>
				<port id="2" precision="FP32">
					<dim>1</dim>
					<dim>30</dim>
				</port>
			</output>
		</layer>
		<layer id="342" name="Constant_7124" type="Const" version="opset1">
			<data element_type="f32" shape="1, 30" offset="74276" size="120" />
			<output>
				<port id="0" precision="FP32">
					<dim>1</dim>
					<dim>30</dim>
				</port>
			</output>
		</layer>
		<layer id="343" name="/model.6/conv/conv.5/fc/fc.0/Gemm" type="Add" version="opset1">
			<data auto_broadcast="numpy" />
			<input>
				<port id="0" precision="FP32">
					<dim>1</dim>
					<dim>30</dim>
				</port>
				<port id="1" precision="FP32">
					<dim>1</dim>
					<dim>30</dim>
				</port>
			</input>
			<output>
				<port id="2" precision="FP32" names="/model.6/conv/conv.5/fc/fc.0/Gemm_output_0">
					<dim>1</dim>
					<dim>30</dim>
				</port>
			</output>
		</layer>
		<layer id="344" name="/model.6/conv/conv.5/fc/fc.1/Relu" type="ReLU" version="opset1">
			<input>
				<port id="0" precision="FP32">
					<dim>1</dim>
					<dim>30</dim>
				</port>
			</input>
			<output>
				<port id="1" precision="FP32" names="/model.6/conv/conv.5/fc/fc.1/Relu_output_0">
					<dim>1</dim>
					<dim>30</dim>
				</port>
			</output>
		</layer>
		<layer id="345" name="/model.6/conv/conv.5/fc/fc.1/Relu/fq_output_0/input_low" type="Const" version="opset1">
			<data element_type="f32" shape="" offset="28392" size="4" />
			<output>
				<port id="0" precision="FP32" />
			</output>
		</layer>
		<layer id="346" name="/model.6/conv/conv.5/fc/fc.1/Relu/fq_output_0/input_high" type="Const" version="opset1">
			<data element_type="f32" shape="" offset="74396" size="4" />
			<output>
				<port id="0" precision="FP32" />
			</output>
		</layer>
		<layer id="347" name="/model.6/conv/conv.5/fc/fc.1/Relu/fq_output_0/output_low" type="Const" version="opset1">
			<data element_type="f32" shape="" offset="28392" size="4" />
			<output>
				<port id="0" precision="FP32" />
			</output>
		</layer>
		<layer id="348" name="/model.6/conv/conv.5/fc/fc.1/Relu/fq_output_0/output_high" type="Const" version="opset1">
			<data element_type="f32" shape="" offset="74396" size="4" />
			<output>
				<port id="0" precision="FP32" />
			</output>
		</layer>
		<layer id="349" name="/model.6/conv/conv.5/fc/fc.1/Relu/fq_output_0" type="FakeQuantize" version="opset1">
			<data levels="256" auto_broadcast="numpy" />
			<input>
				<port id="0" precision="FP32">
					<dim>1</dim>
					<dim>30</dim>
				</port>
				<port id="1" precision="FP32" />
				<port id="2" precision="FP32" />
				<port id="3" precision="FP32" />
				<port id="4" precision="FP32" />
			</input>
			<output>
				<port id="5" precision="FP32">
					<dim>1</dim>
					<dim>30</dim>
				</port>
			</output>
		</layer>
		<layer id="350" name="Constant_515095" type="Const" version="opset1">
			<data element_type="i8" shape="120, 30" offset="74400" size="3600" />
			<output>
				<port id="0" precision="I8">
					<dim>120</dim>
					<dim>30</dim>
				</port>
			</output>
		</layer>
		<layer id="351" name="Convert_515096" type="Convert" version="opset1">
			<data destination_type="f32" />
			<input>
				<port id="0" precision="I8">
					<dim>120</dim>
					<dim>30</dim>
				</port>
			</input>
			<output>
				<port id="1" precision="FP32">
					<dim>120</dim>
					<dim>30</dim>
				</port>
			</output>
		</layer>
		<layer id="352" name="Constant_515097" type="Const" version="opset1">
			<data element_type="f32" shape="120, 1" offset="78000" size="480" />
			<output>
				<port id="0" precision="FP32">
					<dim>120</dim>
					<dim>1</dim>
				</port>
			</output>
		</layer>
		<layer id="353" name="/model.6/conv/conv.5/fc/fc.2/Gemm/WithoutBiases/fq_weights_1" type="Multiply" version="opset1">
			<data auto_broadcast="numpy" />
			<input>
				<port id="0" precision="FP32">
					<dim>120</dim>
					<dim>30</dim>
				</port>
				<port id="1" precision="FP32">
					<dim>120</dim>
					<dim>1</dim>
				</port>
			</input>
			<output>
				<port id="2" precision="FP32">
					<dim>120</dim>
					<dim>30</dim>
				</port>
			</output>
		</layer>
		<layer id="354" name="/model.6/conv/conv.5/fc/fc.2/Gemm/WithoutBiases" type="MatMul" version="opset1">
			<data transpose_a="false" transpose_b="true" />
			<input>
				<port id="0" precision="FP32">
					<dim>1</dim>
					<dim>30</dim>
				</port>
				<port id="1" precision="FP32">
					<dim>120</dim>
					<dim>30</dim>
				</port>
			</input>
			<output>
				<port id="2" precision="FP32">
					<dim>1</dim>
					<dim>120</dim>
				</port>
			</output>
		</layer>
		<layer id="355" name="Constant_7125" type="Const" version="opset1">
			<data element_type="f32" shape="1, 120" offset="78480" size="480" />
			<output>
				<port id="0" precision="FP32">
					<dim>1</dim>
					<dim>120</dim>
				</port>
			</output>
		</layer>
		<layer id="356" name="/model.6/conv/conv.5/fc/fc.2/Gemm" type="Add" version="opset1">
			<data auto_broadcast="numpy" />
			<input>
				<port id="0" precision="FP32">
					<dim>1</dim>
					<dim>120</dim>
				</port>
				<port id="1" precision="FP32">
					<dim>1</dim>
					<dim>120</dim>
				</port>
			</input>
			<output>
				<port id="2" precision="FP32" names="/model.6/conv/conv.5/fc/fc.2/Gemm_output_0">
					<dim>1</dim>
					<dim>120</dim>
				</port>
			</output>
		</layer>
		<layer id="357" name="/model.6/conv/conv.5/fc/fc.3/Div" type="HSigmoid" version="opset5">
			<input>
				<port id="0" precision="FP32">
					<dim>1</dim>
					<dim>120</dim>
				</port>
			</input>
			<output>
				<port id="1" precision="FP32" names="/model.6/conv/conv.5/fc/fc.3/Div_output_0">
					<dim>1</dim>
					<dim>120</dim>
				</port>
			</output>
		</layer>
		<layer id="358" name="/model.6/conv/conv.5/Reshape_1" type="Reshape" version="opset1">
			<data special_zero="true" />
			<input>
				<port id="0" precision="FP32">
					<dim>1</dim>
					<dim>120</dim>
				</port>
				<port id="1" precision="I64">
					<dim>4</dim>
				</port>
			</input>
			<output>
				<port id="2" precision="FP32" names="/model.6/conv/conv.5/Reshape_1_output_0">
					<dim>1</dim>
					<dim>120</dim>
					<dim>1</dim>
					<dim>1</dim>
				</port>
			</output>
		</layer>
		<layer id="359" name="/model.6/conv/conv.5/Mul" type="Multiply" version="opset1">
			<data auto_broadcast="numpy" />
			<input>
				<port id="0" precision="FP32">
					<dim>1</dim>
					<dim>120</dim>
					<dim>52</dim>
					<dim>52</dim>
				</port>
				<port id="1" precision="FP32">
					<dim>1</dim>
					<dim>120</dim>
					<dim>1</dim>
					<dim>1</dim>
				</port>
			</input>
			<output>
				<port id="2" precision="FP32" names="/model.6/conv/conv.5/Mul_output_0">
					<dim>1</dim>
					<dim>120</dim>
					<dim>52</dim>
					<dim>52</dim>
				</port>
			</output>
		</layer>
		<layer id="360" name="/model.6/conv/conv.6/Relu" type="ReLU" version="opset1">
			<input>
				<port id="0" precision="FP32">
					<dim>1</dim>
					<dim>120</dim>
					<dim>52</dim>
					<dim>52</dim>
				</port>
			</input>
			<output>
				<port id="1" precision="FP32" names="/model.6/conv/conv.6/Relu_output_0">
					<dim>1</dim>
					<dim>120</dim>
					<dim>52</dim>
					<dim>52</dim>
				</port>
			</output>
		</layer>
		<layer id="361" name="/model.6/conv/conv.6/Relu/fq_output_0/input_low" type="Const" version="opset1">
			<data element_type="f32" shape="" offset="28392" size="4" />
			<output>
				<port id="0" precision="FP32" />
			</output>
		</layer>
		<layer id="362" name="/model.6/conv/conv.6/Relu/fq_output_0/input_high" type="Const" version="opset1">
			<data element_type="f32" shape="" offset="78960" size="4" />
			<output>
				<port id="0" precision="FP32" />
			</output>
		</layer>
		<layer id="363" name="/model.6/conv/conv.6/Relu/fq_output_0/output_low" type="Const" version="opset1">
			<data element_type="f32" shape="" offset="28392" size="4" />
			<output>
				<port id="0" precision="FP32" />
			</output>
		</layer>
		<layer id="364" name="/model.6/conv/conv.6/Relu/fq_output_0/output_high" type="Const" version="opset1">
			<data element_type="f32" shape="" offset="78960" size="4" />
			<output>
				<port id="0" precision="FP32" />
			</output>
		</layer>
		<layer id="365" name="/model.6/conv/conv.6/Relu/fq_output_0" type="FakeQuantize" version="opset1">
			<data levels="256" auto_broadcast="numpy" />
			<input>
				<port id="0" precision="FP32">
					<dim>1</dim>
					<dim>120</dim>
					<dim>52</dim>
					<dim>52</dim>
				</port>
				<port id="1" precision="FP32" />
				<port id="2" precision="FP32" />
				<port id="3" precision="FP32" />
				<port id="4" precision="FP32" />
			</input>
			<output>
				<port id="5" precision="FP32">
					<dim>1</dim>
					<dim>120</dim>
					<dim>52</dim>
					<dim>52</dim>
				</port>
			</output>
		</layer>
		<layer id="366" name="Constant_515099" type="Const" version="opset1">
			<data element_type="i8" shape="16, 120, 1, 1" offset="78964" size="1920" />
			<output>
				<port id="0" precision="I8">
					<dim>16</dim>
					<dim>120</dim>
					<dim>1</dim>
					<dim>1</dim>
				</port>
			</output>
		</layer>
		<layer id="367" name="Convert_515100" type="Convert" version="opset1">
			<data destination_type="f32" />
			<input>
				<port id="0" precision="I8">
					<dim>16</dim>
					<dim>120</dim>
					<dim>1</dim>
					<dim>1</dim>
				</port>
			</input>
			<output>
				<port id="1" precision="FP32">
					<dim>16</dim>
					<dim>120</dim>
					<dim>1</dim>
					<dim>1</dim>
				</port>
			</output>
		</layer>
		<layer id="368" name="Constant_515101" type="Const" version="opset1">
			<data element_type="f32" shape="16, 1, 1, 1" offset="80884" size="64" />
			<output>
				<port id="0" precision="FP32">
					<dim>16</dim>
					<dim>1</dim>
					<dim>1</dim>
					<dim>1</dim>
				</port>
			</output>
		</layer>
		<layer id="369" name="/model.6/conv/conv.7/Conv/WithoutBiases/fq_weights_1" type="Multiply" version="opset1">
			<data auto_broadcast="numpy" />
…
		<edge from-layer="941" from-port="5" to-layer="943" to-port="0" />
		<edge from-layer="941" from-port="5" to-layer="1288" to-port="1" />
		<edge from-layer="942" from-port="0" to-layer="943" to-port="1" />
		<edge from-layer="942" from-port="0" to-layer="1006" to-port="1" />
		<edge from-layer="943" from-port="2" to-layer="948" to-port="0" />
		<edge from-layer="944" from-port="0" to-layer="948" to-port="1" />
		<edge from-layer="945" from-port="0" to-layer="948" to-port="2" />
		<edge from-layer="946" from-port="0" to-layer="948" to-port="3" />
		<edge from-layer="947" from-port="0" to-layer="948" to-port="4" />
		<edge from-layer="948" from-port="5" to-layer="949" to-port="0" />
		<edge from-layer="949" from-port="2" to-layer="954" to-port="0" />
		<edge from-layer="950" from-port="0" to-layer="951" to-port="0" />
		<edge from-layer="951" from-port="1" to-layer="953" to-port="0" />
		<edge from-layer="952" from-port="0" to-layer="953" to-port="1" />
		<edge from-layer="953" from-port="2" to-layer="954" to-port="1" />
		<edge from-layer="954" from-port="2" to-layer="956" to-port="0" />
		<edge from-layer="955" from-port="0" to-layer="956" to-port="1" />
		<edge from-layer="956" from-port="2" to-layer="957" to-port="0" />
		<edge from-layer="957" from-port="1" to-layer="962" to-port="0" />
		<edge from-layer="958" from-port="0" to-layer="962" to-port="1" />
		<edge from-layer="959" from-port="0" to-layer="962" to-port="2" />
		<edge from-layer="960" from-port="0" to-layer="962" to-port="3" />
		<edge from-layer="961" from-port="0" to-layer="962" to-port="4" />
		<edge from-layer="962" from-port="5" to-layer="965" to-port="0" />
		<edge from-layer="963" from-port="0" to-layer="965" to-port="1" />
		<edge from-layer="964" from-port="0" to-layer="965" to-port="2" />
		<edge from-layer="964" from-port="0" to-layer="1166" to-port="2" />
		<edge from-layer="965" from-port="4" to-layer="970" to-port="0" />
		<edge from-layer="965" from-port="3" to-layer="992" to-port="0" />
		<edge from-layer="965" from-port="4" to-layer="992" to-port="1" />
		<edge from-layer="966" from-port="0" to-layer="967" to-port="0" />
		<edge from-layer="967" from-port="1" to-layer="969" to-port="0" />
		<edge from-layer="968" from-port="0" to-layer="969" to-port="1" />
		<edge from-layer="969" from-port="2" to-layer="970" to-port="1" />
		<edge from-layer="970" from-port="2" to-layer="972" to-port="0" />
		<edge from-layer="971" from-port="0" to-layer="972" to-port="1" />
		<edge from-layer="972" from-port="2" to-layer="973" to-port="0" />
		<edge from-layer="973" from-port="1" to-layer="978" to-port="0" />
		<edge from-layer="974" from-port="0" to-layer="978" to-port="1" />
		<edge from-layer="975" from-port="0" to-layer="978" to-port="2" />
		<edge from-layer="976" from-port="0" to-layer="978" to-port="3" />
		<edge from-layer="977" from-port="0" to-layer="978" to-port="4" />
		<edge from-layer="978" from-port="5" to-layer="983" to-port="0" />
		<edge from-layer="979" from-port="0" to-layer="980" to-port="0" />
		<edge from-layer="980" from-port="1" to-layer="982" to-port="0" />
		<edge from-layer="981" from-port="0" to-layer="982" to-port="1" />
		<edge from-layer="982" from-port="2" to-layer="983" to-port="1" />
		<edge from-layer="983" from-port="2" to-layer="985" to-port="0" />
		<edge from-layer="984" from-port="0" to-layer="985" to-port="1" />
		<edge from-layer="985" from-port="2" to-layer="986" to-port="0" />
		<edge from-layer="986" from-port="1" to-layer="991" to-port="0" />
		<edge from-layer="987" from-port="0" to-layer="991" to-port="1" />
		<edge from-layer="988" from-port="0" to-layer="991" to-port="2" />
		<edge from-layer="989" from-port="0" to-layer="991" to-port="3" />
		<edge from-layer="990" from-port="0" to-layer="991" to-port="4" />
		<edge from-layer="991" from-port="5" to-layer="992" to-port="2" />
		<edge from-layer="992" from-port="3" to-layer="997" to-port="0" />
		<edge from-layer="993" from-port="0" to-layer="994" to-port="0" />
		<edge from-layer="994" from-port="1" to-layer="996" to-port="0" />
		<edge from-layer="995" from-port="0" to-layer="996" to-port="1" />
		<edge from-layer="996" from-port="2" to-layer="997" to-port="1" />
		<edge from-layer="997" from-port="2" to-layer="999" to-port="0" />
		<edge from-layer="998" from-port="0" to-layer="999" to-port="1" />
		<edge from-layer="999" from-port="2" to-layer="1000" to-port="0" />
		<edge from-layer="1000" from-port="1" to-layer="1005" to-port="0" />
		<edge from-layer="1001" from-port="0" to-layer="1005" to-port="1" />
		<edge from-layer="1002" from-port="0" to-layer="1005" to-port="2" />
		<edge from-layer="1003" from-port="0" to-layer="1005" to-port="3" />
		<edge from-layer="1004" from-port="0" to-layer="1005" to-port="4" />
		<edge from-layer="1005" from-port="5" to-layer="1006" to-port="0" />
		<edge from-layer="1005" from-port="5" to-layer="1151" to-port="1" />
		<edge from-layer="1006" from-port="2" to-layer="1011" to-port="0" />
		<edge from-layer="1007" from-port="0" to-layer="1011" to-port="1" />
		<edge from-layer="1008" from-port="0" to-layer="1011" to-port="2" />
		<edge from-layer="1009" from-port="0" to-layer="1011" to-port="3" />
		<edge from-layer="1010" from-port="0" to-layer="1011" to-port="4" />
		<edge from-layer="1011" from-port="5" to-layer="1012" to-port="0" />
		<edge from-layer="1012" from-port="2" to-layer="1017" to-port="0" />
		<edge from-layer="1013" from-port="0" to-layer="1014" to-port="0" />
		<edge from-layer="1014" from-port="1" to-layer="1016" to-port="0" />
		<edge from-layer="1015" from-port="0" to-layer="1016" to-port="1" />
		<edge from-layer="1016" from-port="2" to-layer="1017" to-port="1" />
		<edge from-layer="1017" from-port="2" to-layer="1019" to-port="0" />
		<edge from-layer="1018" from-port="0" to-layer="1019" to-port="1" />
		<edge from-layer="1019" from-port="2" to-layer="1020" to-port="0" />
		<edge from-layer="1020" from-port="1" to-layer="1025" to-port="0" />
		<edge from-layer="1021" from-port="0" to-layer="1025" to-port="1" />
		<edge from-layer="1022" from-port="0" to-layer="1025" to-port="2" />
		<edge from-layer="1023" from-port="0" to-layer="1025" to-port="3" />
		<edge from-layer="1024" from-port="0" to-layer="1025" to-port="4" />
		<edge from-layer="1025" from-port="5" to-layer="1028" to-port="0" />
		<edge from-layer="1026" from-port="0" to-layer="1028" to-port="1" />
		<edge from-layer="1027" from-port="0" to-layer="1028" to-port="2" />
		<edge from-layer="1028" from-port="4" to-layer="1033" to-port="0" />
		<edge from-layer="1028" from-port="3" to-layer="1055" to-port="0" />
		<edge from-layer="1028" from-port="4" to-layer="1055" to-port="1" />
		<edge from-layer="1029" from-port="0" to-layer="1030" to-port="0" />
		<edge from-layer="1030" from-port="1" to-layer="1032" to-port="0" />
		<edge from-layer="1031" from-port="0" to-layer="1032" to-port="1" />
		<edge from-layer="1032" from-port="2" to-layer="1033" to-port="1" />
		<edge from-layer="1033" from-port="2" to-layer="1035" to-port="0" />
		<edge from-layer="1034" from-port="0" to-layer="1035" to-port="1" />
		<edge from-layer="1035" from-port="2" to-layer="1036" to-port="0" />
		<edge from-layer="1036" from-port="1" to-layer="1041" to-port="0" />
		<edge from-layer="1037" from-port="0" to-layer="1041" to-port="1" />
		<edge from-layer="1038" from-port="0" to-layer="1041" to-port="2" />
		<edge from-layer="1039" from-port="0" to-layer="1041" to-port="3" />
		<edge from-layer="1040" from-port="0" to-layer="1041" to-port="4" />
		<edge from-layer="1041" from-port="5" to-layer="1046" to-port="0" />
		<edge from-layer="1042" from-port="0" to-layer="1043" to-port="0" />
		<edge from-layer="1043" from-port="1" to-layer="1045" to-port="0" />
		<edge from-layer="1044" from-port="0" to-layer="1045" to-port="1" />
		<edge from-layer="1045" from-port="2" to-layer="1046" to-port="1" />
		<edge from-layer="1046" from-port="2" to-layer="1048" to-port="0" />
		<edge from-layer="1047" from-port="0" to-layer="1048" to-port="1" />
		<edge from-layer="1048" from-port="2" to-layer="1049" to-port="0" />
		<edge from-layer="1049" from-port="1" to-layer="1054" to-port="0" />
		<edge from-layer="1050" from-port="0" to-layer="1054" to-port="1" />
		<edge from-layer="1051" from-port="0" to-layer="1054" to-port="2" />
		<edge from-layer="1052" from-port="0" to-layer="1054" to-port="3" />
		<edge from-layer="1053" from-port="0" to-layer="1054" to-port="4" />
		<edge from-layer="1054" from-port="5" to-layer="1055" to-port="2" />
		<edge from-layer="1055" from-port="3" to-layer="1060" to-port="0" />
		<edge from-layer="1056" from-port="0" to-layer="1057" to-port="0" />
		<edge from-layer="1057" from-port="1" to-layer="1059" to-port="0" />
		<edge from-layer="1058" from-port="0" to-layer="1059" to-port="1" />
		<edge from-layer="1059" from-port="2" to-layer="1060" to-port="1" />
		<edge from-layer="1060" from-port="2" to-layer="1062" to-port="0" />
		<edge from-layer="1061" from-port="0" to-layer="1062" to-port="1" />
		<edge from-layer="1062" from-port="2" to-layer="1063" to-port="0" />
		<edge from-layer="1063" from-port="1" to-layer="1068" to-port="0" />
		<edge from-layer="1064" from-port="0" to-layer="1068" to-port="1" />
		<edge from-layer="1065" from-port="0" to-layer="1068" to-port="2" />
		<edge from-layer="1066" from-port="0" to-layer="1068" to-port="3" />
		<edge from-layer="1067" from-port="0" to-layer="1068" to-port="4" />
		<edge from-layer="1068" from-port="5" to-layer="1073" to-port="0" />
		<edge from-layer="1068" from-port="5" to-layer="1142" to-port="0" />
		<edge from-layer="1068" from-port="5" to-layer="1106" to-port="0" />
		<edge from-layer="1068" from-port="5" to-layer="1471" to-port="0" />
		<edge from-layer="1069" from-port="0" to-layer="1070" to-port="0" />
		<edge from-layer="1070" from-port="1" to-layer="1072" to-port="0" />
		<edge from-layer="1071" from-port="0" to-layer="1072" to-port="1" />
		<edge from-layer="1072" from-port="2" to-layer="1073" to-port="1" />
		<edge from-layer="1073" from-port="2" to-layer="1075" to-port="0" />
		<edge from-layer="1074" from-port="0" to-layer="1075" to-port="1" />
		<edge from-layer="1075" from-port="2" to-layer="1076" to-port="0" />
		<edge from-layer="1076" from-port="1" to-layer="1081" to-port="0" />
		<edge from-layer="1077" from-port="0" to-layer="1081" to-port="1" />
		<edge from-layer="1078" from-port="0" to-layer="1081" to-port="2" />
		<edge from-layer="1079" from-port="0" to-layer="1081" to-port="3" />
		<edge from-layer="1080" from-port="0" to-layer="1081" to-port="4" />
		<edge from-layer="1081" from-port="5" to-layer="1086" to-port="0" />
		<edge from-layer="1082" from-port="0" to-layer="1083" to-port="0" />
		<edge from-layer="1083" from-port="1" to-layer="1085" to-port="0" />
		<edge from-layer="1084" from-port="0" to-layer="1085" to-port="1" />
		<edge from-layer="1085" from-port="2" to-layer="1086" to-port="1" />
		<edge from-layer="1086" from-port="2" to-layer="1088" to-port="0" />
		<edge from-layer="1087" from-port="0" to-layer="1088" to-port="1" />
		<edge from-layer="1088" from-port="2" to-layer="1089" to-port="0" />
		<edge from-layer="1089" from-port="1" to-layer="1094" to-port="0" />
		<edge from-layer="1090" from-port="0" to-layer="1094" to-port="1" />
		<edge from-layer="1091" from-port="0" to-layer="1094" to-port="2" />
		<edge from-layer="1092" from-port="0" to-layer="1094" to-port="3" />
		<edge from-layer="1093" from-port="0" to-layer="1094" to-port="4" />
		<edge from-layer="1094" from-port="5" to-layer="1099" to-port="0" />
		<edge from-layer="1095" from-port="0" to-layer="1096" to-port="0" />
		<edge from-layer="1096" from-port="1" to-layer="1098" to-port="0" />
		<edge from-layer="1097" from-port="0" to-layer="1098" to-port="1" />
		<edge from-layer="1098" from-port="2" to-layer="1099" to-port="1" />
		<edge from-layer="1099" from-port="2" to-layer="1101" to-port="0" />
		<edge from-layer="1100" from-port="0" to-layer="1101" to-port="1" />
		<edge from-layer="1101" from-port="2" to-layer="1135" to-port="0" />
		<edge from-layer="1102" from-port="0" to-layer="1103" to-port="0" />
		<edge from-layer="1103" from-port="1" to-layer="1105" to-port="0" />
		<edge from-layer="1104" from-port="0" to-layer="1105" to-port="1" />
		<edge from-layer="1105" from-port="2" to-layer="1106" to-port="1" />
		<edge from-layer="1106" from-port="2" to-layer="1108" to-port="0" />
		<edge from-layer="1107" from-port="0" to-layer="1108" to-port="1" />
		<edge from-layer="1108" from-port="2" to-layer="1109" to-port="0" />
		<edge from-layer="1109" from-port="1" to-layer="1114" to-port="0" />
		<edge from-layer="1110" from-port="0" to-layer="1114" to-port="1" />
		<edge from-layer="1111" from-port="0" to-layer="1114" to-port="2" />
		<edge from-layer="1112" from-port="0" to-layer="1114" to-port="3" />
		<edge from-layer="1113" from-port="0" to-layer="1114" to-port="4" />
		<edge from-layer="1114" from-port="5" to-layer="1119" to-port="0" />
		<edge from-layer="1115" from-port="0" to-layer="1116" to-port="0" />
		<edge from-layer="1116" from-port="1" to-layer="1118" to-port="0" />
		<edge from-layer="1117" from-port="0" to-layer="1118" to-port="1" />
		<edge from-layer="1118" from-port="2" to-layer="1119" to-port="1" />
		<edge from-layer="1119" from-port="2" to-layer="1121" to-port="0" />
		<edge from-layer="1120" from-port="0" to-layer="1121" to-port="1" />
		<edge from-layer="1121" from-port="2" to-layer="1122" to-port="0" />
		<edge from-layer="1122" from-port="1" to-layer="1127" to-port="0" />
		<edge from-layer="1123" from-port="0" to-layer="1127" to-port="1" />
		<edge from-layer="1124" from-port="0" to-layer="1127" to-port="2" />
		<edge from-layer="1125" from-port="0" to-layer="1127" to-port="3" />
		<edge from-layer="1126" from-port="0" to-layer="1127" to-port="4" />
		<edge from-layer="1127" from-port="5" to-layer="1132" to-port="0" />
		<edge from-layer="1128" from-port="0" to-layer="1129" to-port="0" />
		<edge from-layer="1129" from-port="1" to-layer="1131" to-port="0" />
		<edge from-layer="1130" from-port="0" to-layer="1131" to-port="1" />
		<edge from-layer="1131" from-port="2" to-layer="1132" to-port="1" />
		<edge from-layer="1132" from-port="2" to-layer="1134" to-port="0" />
		<edge from-layer="1133" from-port="0" to-layer="1134" to-port="1" />
		<edge from-layer="1134" from-port="2" to-layer="1135" to-port="1" />
		<edge from-layer="1135" from-port="2" to-layer="1137" to-port="0" />
		<edge from-layer="1136" from-port="0" to-layer="1137" to-port="1" />
		<edge from-layer="1136" from-port="0" to-layer="1274" to-port="1" />
		<edge from-layer="1136" from-port="0" to-layer="1412" to-port="1" />
		<edge from-layer="1137" from-port="2" to-layer="1413" to-port="0" />
		<edge from-layer="1138" from-port="0" to-layer="1139" to-port="0" />
		<edge from-layer="1139" from-port="1" to-layer="1141" to-port="0" />
		<edge from-layer="1140" from-port="0" to-layer="1141" to-port="1" />
		<edge from-layer="1141" from-port="2" to-layer="1142" to-port="1" />
		<edge from-layer="1142" from-port="2" to-layer="1144" to-port="0" />
		<edge from-layer="1143" from-port="0" to-layer="1144" to-port="1" />
		<edge from-layer="1144" from-port="2" to-layer="1145" to-port="0" />
		<edge from-layer="1145" from-port="1" to-layer="1150" to-port="0" />
		<edge from-layer="1146" from-port="0" to-layer="1150" to-port="1" />
		<edge from-layer="1147" from-port="0" to-layer="1150" to-port="2" />
		<edge from-layer="1148" from-port="0" to-layer="1150" to-port="3" />
		<edge from-layer="1149" from-port="0" to-layer="1150" to-port="4" />
		<edge from-layer="1150" from-port="5" to-layer="1151" to-port="0" />
		<edge from-layer="1151" from-port="2" to-layer="1156" to-port="0" />
		<edge from-layer="1152" from-port="0" to-layer="1153" to-port="0" />
		<edge from-layer="1153" from-port="1" to-layer="1155" to-port="0" />
		<edge from-layer="1154" from-port="0" to-layer="1155" to-port="1" />
		<edge from-layer="1155" from-port="2" to-layer="1156" to-port="1" />
		<edge from-layer="1156" from-port="2" to-layer="1158" to-port="0" />
		<edge from-layer="1157" from-port="0" to-layer="1158" to-port="1" />
		<edge from-layer="1158" from-port="2" to-layer="1159" to-port="0" />
		<edge from-layer="1159" from-port="1" to-layer="1164" to-port="0" />
		<edge from-layer="1160" from-port="0" to-layer="1164" to-port="1" />
		<edge from-layer="1161" from-port="0" to-layer="1164" to-port="2" />
		<edge from-layer="1162" from-port="0" to-layer="1164" to-port="3" />
		<edge from-layer="1163" from-port="0" to-layer="1164" to-port="4" />
		<edge from-layer="1164" from-port="5" to-layer="1166" to-port="0" />
		<edge from-layer="1165" from-port="0" to-layer="1166" to-port="1" />
		<edge from-layer="1166" from-port="3" to-layer="1193" to-port="0" />
		<edge from-layer="1166" from-port="4" to-layer="1193" to-port="1" />
		<edge from-layer="1166" from-port="4" to-layer="1171" to-port="0" />
		<edge from-layer="1167" from-port="0" to-layer="1168" to-port="0" />
		<edge from-layer="1168" from-port="1" to-layer="1170" to-port="0" />
		<edge from-layer="1169" from-port="0" to-layer="1170" to-port="1" />
		<edge from-layer="1170" from-port="2" to-layer="1171" to-port="1" />
		<edge from-layer="1171" from-port="2" to-layer="1173" to-port="0" />
		<edge from-layer="1172" from-port="0" to-layer="1173" to-port="1" />
		<edge from-layer="1173" from-port="2" to-layer="1174" to-port="0" />
		<edge from-layer="1174" from-port="1" to-layer="1179" to-port="0" />
		<edge from-layer="1175" from-port="0" to-layer="1179" to-port="1" />
		<edge from-layer="1176" from-port="0" to-layer="1179" to-port="2" />
		<edge from-layer="1177" from-port="0" to-layer="1179" to-port="3" />
		<edge from-layer="1178" from-port="0" to-layer="1179" to-port="4" />
		<edge from-layer="1179" from-port="5" to-layer="1184" to-port="0" />
		<edge from-layer="1180" from-port="0" to-layer="1181" to-port="0" />
		<edge from-layer="1181" from-port="1" to-layer="1183" to-port="0" />
		<edge from-layer="1182" from-port="0" to-layer="1183" to-port="1" />
		<edge from-layer="1183" from-port="2" to-layer="1184" to-port="1" />
		<edge from-layer="1184" from-port="2" to-layer="1186" to-port="0" />
		<edge from-layer="1185" from-port="0" to-layer="1186" to-port="1" />
		<edge from-layer="1186" from-port="2" to-layer="1187" to-port="0" />
		<edge from-layer="1187" from-port="1" to-layer="1192" to-port="0" />
		<edge from-layer="1188" from-port="0" to-layer="1192" to-port="1" />
		<edge from-layer="1189" from-port="0" to-layer="1192" to-port="2" />
		<edge from-layer="1190" from-port="0" to-layer="1192" to-port="3" />
		<edge from-layer="1191" from-port="0" to-layer="1192" to-port="4" />
		<edge from-layer="1192" from-port="5" to-layer="1193" to-port="2" />
		<edge from-layer="1193" from-port="3" to-layer="1198" to-port="0" />
		<edge from-layer="1194" from-port="0" to-layer="1195" to-port="0" />
		<edge from-layer="1195" from-port="1" to-layer="1197" to-port="0" />
		<edge from-layer="1196" from-port="0" to-layer="1197" to-port="1" />
		<edge from-layer="1197" from-port="2" to-layer="1198" to-port="1" />
		<edge from-layer="1198" from-port="2" to-layer="1200" to-port="0" />
		<edge from-layer="1199" from-port="0" to-layer="1200" to-port="1" />
		<edge from-layer="1200" from-port="2" to-layer="1201" to-port="0" />
		<edge from-layer="1201" from-port="1" to-layer="1206" to-port="0" />
		<edge from-layer="1202" from-port="0" to-layer="1206" to-port="1" />
		<edge from-layer="1203" from-port="0" to-layer="1206" to-port="2" />
		<edge from-layer="1204" from-port="0" to-layer="1206" to-port="3" />
		<edge from-layer="1205" from-port="0" to-layer="1206" to-port="4" />
		<edge from-layer="1206" from-port="5" to-layer="1211" to-port="0" />
		<edge from-layer="1206" from-port="5" to-layer="1506" to-port="0" />
		<edge from-layer="1206" from-port="5" to-layer="1279" to-port="0" />
		<edge from-layer="1206" from-port="5" to-layer="1244" to-port="0" />
		<edge from-layer="1207" from-port="0" to-layer="1208" to-port="0" />
		<edge from-layer="1208" from-port="1" to-layer="1210" to-port="0" />
		<edge from-layer="1209" from-port="0" to-layer="1210" to-port="1" />
		<edge from-layer="1210" from-port="2" to-layer="1211" to-port="1" />
		<edge from-layer="1211" from-port="2" to-layer="1213" to-port="0" />
		<edge from-layer="1212" from-port="0" to-layer="1213" to-port="1" />
		<edge from-layer="1213" from-port="2" to-layer="1214" to-port="0" />
		<edge from-layer="1214" from-port="1" to-layer="1219" to-port="0" />
		<edge from-layer="1215" from-port="0" to-layer="1219" to-port="1" />
		<edge from-layer="1216" from-port="0" to-layer="1219" to-port="2" />
		<edge from-layer="1217" from-port="0" to-layer="1219" to-port="3" />
		<edge from-layer="1218" from-port="0" to-layer="1219" to-port="4" />
		<edge from-layer="1219" from-port="5" to-layer="1224" to-port="0" />
		<edge from-layer="1220" from-port="0" to-layer="1221" to-port="0" />
		<edge from-layer="1221" from-port="1" to-layer="1223" to-port="0" />
		<edge from-layer="1222" from-port="0" to-layer="1223" to-port="1" />
		<edge from-layer="1223" from-port="2" to-layer="1224" to-port="1" />
		<edge from-layer="1224" from-port="2" to-layer="1226" to-port="0" />
		<edge from-layer="1225" from-port="0" to-layer="1226" to-port="1" />
		<edge from-layer="1226" from-port="2" to-layer="1227" to-port="0" />
		<edge from-layer="1227" from-port="1" to-layer="1232" to-port="0" />
		<edge from-layer="1228" from-port="0" to-layer="1232" to-port="1" />
		<edge from-layer="1229" from-port="0" to-layer="1232" to-port="2" />
		<edge from-layer="1230" from-port="0" to-layer="1232" to-port="3" />
		<edge from-layer="1231" from-port="0" to-layer="1232" to-port="4" />
		<edge from-layer="1232" from-port="5" to-layer="1237" to-port="0" />
		<edge from-layer="1233" from-port="0" to-layer="1234" to-port="0" />
		<edge from-layer="1234" from-port="1" to-layer="1236" to-port="0" />
		<edge from-layer="1235" from-port="0" to-layer="1236" to-port="1" />
		<edge from-layer="1236" from-port="2" to-layer="1237" to-port="1" />
		<edge from-layer="1237" from-port="2" to-layer="1239" to-port="0" />
		<edge from-layer="1238" from-port="0" to-layer="1239" to-port="1" />
		<edge from-layer="1239" from-port="2" to-layer="1273" to-port="0" />
		<edge from-layer="1240" from-port="0" to-layer="1241" to-port="0" />
		<edge from-layer="1241" from-port="1" to-layer="1243" to-port="0" />
		<edge from-layer="1242" from-port="0" to-layer="1243" to-port="1" />
		<edge from-layer="1243" from-port="2" to-layer="1244" to-port="1" />
		<edge from-layer="1244" from-port="2" to-layer="1246" to-port="0" />
		<edge from-layer="1245" from-port="0" to-layer="1246" to-port="1" />
		<edge from-layer="1246" from-port="2" to-layer="1247" to-port="0" />
		<edge from-layer="1247" from-port="1" to-layer="1252" to-port="0" />
		<edge from-layer="1248" from-port="0" to-layer="1252" to-port="1" />
		<edge from-layer="1249" from-port="0" to-layer="1252" to-port="2" />
		<edge from-layer="1250" from-port="0" to-layer="1252" to-port="3" />
		<edge from-layer="1251" from-port="0" to-layer="1252" to-port="4" />
		<edge from-layer="1252" from-port="5" to-layer="1257" to-port="0" />
		<edge from-layer="1253" from-port="0" to-layer="1254" to-port="0" />
		<edge from-layer="1254" from-port="1" to-layer="1256" to-port="0" />
		<edge from-layer="1255" from-port="0" to-layer="1256" to-port="1" />
		<edge from-layer="1256" from-port="2" to-layer="1257" to-port="1" />
		<edge from-layer="1257" from-port="2" to-layer="1259" to-port="0" />
		<edge from-layer="1258" from-port="0" to-layer="1259" to-port="1" />
		<edge from-layer="1259" from-port="2" to-layer="1260" to-port="0" />
		<edge from-layer="1260" from-port="1" to-layer="1265" to-port="0" />
		<edge from-layer="1261" from-port="0" to-layer="1265" to-port="1" />
		<edge from-layer="1262" from-port="0" to-layer="1265" to-port="2" />
		<edge from-layer="1263" from-port="0" to-layer="1265" to-port="3" />
		<edge from-layer="1264" from-port="0" to-layer="1265" to-port="4" />
		<edge from-layer="1265" from-port="5" to-layer="1270" to-port="0" />
		<edge from-layer="1266" from-port="0" to-layer="1267" to-port="0" />
		<edge from-layer="1267" from-port="1" to-layer="1269" to-port="0" />
		<edge from-layer="1268" from-port="0" to-layer="1269" to-port="1" />
		<edge from-layer="1269" from-port="2" to-layer="1270" to-port="1" />
		<edge from-layer="1270" from-port="2" to-layer="1272" to-port="0" />
		<edge from-layer="1271" from-port="0" to-layer="1272" to-port="1" />
		<edge from-layer="1272" from-port="2" to-layer="1273" to-port="1" />
		<edge from-layer="1273" from-port="2" to-layer="1274" to-port="0" />
		<edge from-layer="1274" from-port="2" to-layer="1413" to-port="1" />
		<edge from-layer="1275" from-port="0" to-layer="1276" to-port="0" />
		<edge from-layer="1276" from-port="1" to-layer="1278" to-port="0" />
		<edge from-layer="1277" from-port="0" to-layer="1278" to-port="1" />
		<edge from-layer="1278" from-port="2" to-layer="1279" to-port="1" />
		<edge from-layer="1279" from-port="2" to-layer="1281" to-port="0" />
		<edge from-layer="1280" from-port="0" to-layer="1281" to-port="1" />
		<edge from-layer="1281" from-port="2" to-layer="1282" to-port="0" />
		<edge from-layer="1282" from-port="1" to-layer="1287" to-port="0" />
		<edge from-layer="1283" from-port="0" to-layer="1287" to-port="1" />
		<edge from-layer="1284" from-port="0" to-layer="1287" to-port="2" />
		<edge from-layer="1285" from-port="0" to-layer="1287" to-port="3" />
		<edge from-layer="1286" from-port="0" to-layer="1287" to-port="4" />
		<edge from-layer="1287" from-port="5" to-layer="1288" to-port="0" />
		<edge from-layer="1288" from-port="2" to-layer="1293" to-port="0" />
		<edge from-layer="1289" from-port="0" to-layer="1290" to-port="0" />
		<edge from-layer="1290" from-port="1" to-layer="1292" to-port="0" />
		<edge from-layer="1291" from-port="0" to-layer="1292" to-port="1" />
		<edge from-layer="1292" from-port="2" to-layer="1293" to-port="1" />
		<edge from-layer="1293" from-port="2" to-layer="1295" to-port="0" />
		<edge from-layer="1294" from-port="0" to-layer="1295" to-port="1" />
		<edge from-layer="1295" from-port="2" to-layer="1296" to-port="0" />
		<edge from-layer="1296" from-port="1" to-layer="1301" to-port="0" />
		<edge from-layer="1297" from-port="0" to-layer="1301" to-port="1" />
		<edge from-layer="1298" from-port="0" to-layer="1301" to-port="2" />
		<edge from-layer="1299" from-port="0" to-layer="1301" to-port="3" />
		<edge from-layer="1300" from-port="0" to-layer="1301" to-port="4" />
		<edge from-layer="1301" from-port="5" to-layer="1304" to-port="0" />
		<edge from-layer="1302" from-port="0" to-layer="1304" to-port="1" />
		<edge from-layer="1303" from-port="0" to-layer="1304" to-port="2" />
		<edge from-layer="1304" from-port="3" to-layer="1331" to-port="0" />
		<edge from-layer="1304" from-port="4" to-layer="1331" to-port="1" />
		<edge from-layer="1304" from-port="4" to-layer="1309" to-port="0" />
		<edge from-layer="1305" from-port="0" to-layer="1306" to-port="0" />
		<edge from-layer="1306" from-port="1" to-layer="1308" to-port="0" />
		<edge from-layer="1307" from-port="0" to-layer="1308" to-port="1" />
		<edge from-layer="1308" from-port="2" to-layer="1309" to-port="1" />
		<edge from-layer="1309" from-port="2" to-layer="1311" to-port="0" />
		<edge from-layer="1310" from-port="0" to-layer="1311" to-port="1" />
		<edge from-layer="1311" from-port="2" to-layer="1312" to-port="0" />
		<edge from-layer="1312" from-port="1" to-layer="1317" to-port="0" />
		<edge from-layer="1313" from-port="0" to-layer="1317" to-port="1" />
		<edge from-layer="1314" from-port="0" to-layer="1317" to-port="2" />
		<edge from-layer="1315" from-port="0" to-layer="1317" to-port="3" />
		<edge from-layer="1316" from-port="0" to-layer="1317" to-port="4" />
		<edge from-layer="1317" from-port="5" to-layer="1322" to-port="0" />
		<edge from-layer="1318" from-port="0" to-layer="1319" to-port="0" />
		<edge from-layer="1319" from-port="1" to-layer="1321" to-port="0" />
		<edge from-layer="1320" from-port="0" to-layer="1321" to-port="1" />
		<edge from-layer="1321" from-port="2" to-layer="1322" to-port="1" />
		<edge from-layer="1322" from-port="2" to-layer="1324" to-port="0" />
		<edge from-layer="1323" from-port="0" to-layer="1324" to-port="1" />
		<edge from-layer="1324" from-port="2" to-layer="1325" to-port="0" />
		<edge from-layer="1325" from-port="1" to-layer="1330" to-port="0" />
		<edge from-layer="1326" from-port="0" to-layer="1330" to-port="1" />
		<edge from-layer="1327" from-port="0" to-layer="1330" to-port="2" />
		<edge from-layer="1328" from-port="0" to-layer="1330" to-port="3" />
		<edge from-layer="1329" from-port="0" to-layer="1330" to-port="4" />
		<edge from-layer="1330" from-port="5" to-layer="1331" to-port="2" />
		<edge from-layer="1331" from-port="3" to-layer="1336" to-port="0" />
		<edge from-layer="1332" from-port="0" to-layer="1333" to-port="0" />
		<edge from-layer="1333" from-port="1" to-layer="1335" to-port="0" />
		<edge from-layer="1334" from-port="0" to-layer="1335" to-port="1" />
		<edge from-layer="1335" from-port="2" to-layer="1336" to-port="1" />
		<edge from-layer="1336" from-port="2" to-layer="1338" to-port="0" />
		<edge from-layer="1337" from-port="0" to-layer="1338" to-port="1" />
		<edge from-layer="1338" from-port="2" to-layer="1339" to-port="0" />
		<edge from-layer="1339" from-port="1" to-layer="1344" to-port="0" />
		<edge from-layer="1340" from-port="0" to-layer="1344" to-port="1" />
		<edge from-layer="1341" from-port="0" to-layer="1344" to-port="2" />
		<edge from-layer="1342" from-port="0" to-layer="1344" to-port="3" />
		<edge from-layer="1343" from-port="0" to-layer="1344" to-port="4" />
		<edge from-layer="1344" from-port="5" to-layer="1349" to-port="0" />
		<edge from-layer="1344" from-port="5" to-layer="1540" to-port="0" />
		<edge from-layer="1344" from-port="5" to-layer="1382" to-port="0" />
		<edge from-layer="1345" from-port="0" to-layer="1346" to-port="0" />
		<edge from-layer="1346" from-port="1" to-layer="1348" to-port="0" />
		<edge from-layer="1347" from-port="0" to-layer="1348" to-port="1" />
		<edge from-layer="1348" from-port="2" to-layer="1349" to-port="1" />
		<edge from-layer="1349" from-port="2" to-layer="1351" to-port="0" />
		<edge from-layer="1350" from-port="0" to-layer="1351" to-port="1" />
		<edge from-layer="1351" from-port="2" to-layer="1352" to-port="0" />
		<edge from-layer="1352" from-port="1" to-layer="1357" to-port="0" />
		<edge from-layer="1353" from-port="0" to-layer="1357" to-port="1" />
		<edge from-layer="1354" from-port="0" to-layer="1357" to-port="2" />
		<edge from-layer="1355" from-port="0" to-layer="1357" to-port="3" />
		<edge from-layer="1356" from-port="0" to-layer="1357" to-port="4" />
		<edge from-layer="1357" from-port="5" to-layer="1362" to-port="0" />
		<edge from-layer="1358" from-port="0" to-layer="1359" to-port="0" />
		<edge from-layer="1359" from-port="1" to-layer="1361" to-port="0" />
		<edge from-layer="1360" from-port="0" to-layer="1361" to-port="1" />
		<edge from-layer="1361" from-port="2" to-layer="1362" to-port="1" />
		<edge from-layer="1362" from-port="2" to-layer="1364" to-port="0" />
		<edge from-layer="1363" from-port="0" to-layer="1364" to-port="1" />
		<edge from-layer="1364" from-port="2" to-layer="1365" to-port="0" />
		<edge from-layer="1365" from-port="1" to-layer="1370" to-port="0" />
		<edge from-layer="1366" from-port="0" to-layer="1370" to-port="1" />
		<edge from-layer="1367" from-port="0" to-layer="1370" to-port="2" />
		<edge from-layer="1368" from-port="0" to-layer="1370" to-port="3" />
		<edge from-layer="1369" from-port="0" to-layer="1370" to-port="4" />
		<edge from-layer="1370" from-port="5" to-layer="1375" to-port="0" />
		<edge from-layer="1371" from-port="0" to-layer="1372" to-port="0" />
		<edge from-layer="1372" from-port="1" to-layer="1374" to-port="0" />
		<edge from-layer="1373" from-port="0" to-layer="1374" to-port="1" />
		<edge from-layer="1374" from-port="2" to-layer="1375" to-port="1" />
		<edge from-layer="1375" from-port="2" to-layer="1377" to-port="0" />
		<edge from-layer="1376" from-port="0" to-layer="1377" to-port="1" />
		<edge from-layer="1377" from-port="2" to-layer="1411" to-port="0" />
		<edge from-layer="1378" from-port="0" to-layer="1379" to-port="0" />
		<edge from-layer="1379" from-port="1" to-layer="1381" to-port="0" />
		<edge from-layer="1380" from-port="0" to-layer="1381" to-port="1" />
		<edge from-layer="1381" from-port="2" to-layer="1382" to-port="1" />
		<edge from-layer="1382" from-port="2" to-layer="1384" to-port="0" />
		<edge from-layer="1383" from-port="0" to-layer="1384" to-port="1" />
		<edge from-layer="1384" from-port="2" to-layer="1385" to-port="0" />
		<edge from-layer="1385" from-port="1" to-layer="1390" to-port="0" />
		<edge from-layer="1386" from-port="0" to-layer="1390" to-port="1" />
		<edge from-layer="1387" from-port="0" to-layer="1390" to-port="2" />
		<edge from-layer="1388" from-port="0" to-layer="1390" to-port="3" />
		<edge from-layer="1389" from-port="0" to-layer="1390" to-port="4" />
		<edge from-layer="1390" from-port="5" to-layer="1395" to-port="0" />
		<edge from-layer="1391" from-port="0" to-layer="1392" to-port="0" />
		<edge from-layer="1392" from-port="1" to-layer="1394" to-port="0" />
		<edge from-layer="1393" from-port="0" to-layer="1394" to-port="1" />
		<edge from-layer="1394" from-port="2" to-layer="1395" to-port="1" />
		<edge from-layer="1395" from-port="2" to-layer="1397" to-port="0" />
		<edge from-layer="1396" from-port="0" to-layer="1397" to-port="1" />
		<edge from-layer="1397" from-port="2" to-layer="1398" to-port="0" />
		<edge from-layer="1398" from-port="1" to-layer="1403" to-port="0" />
		<edge from-layer="1399" from-port="0" to-layer="1403" to-port="1" />
		<edge from-layer="1400" from-port="0" to-layer="1403" to-port="2" />
		<edge from-layer="1401" from-port="0" to-layer="1403" to-port="3" />
		<edge from-layer="1402" from-port="0" to-layer="1403" to-port="4" />
		<edge from-layer="1403" from-port="5" to-layer="1408" to-port="0" />
		<edge from-layer="1404" from-port="0" to-layer="1405" to-port="0" />
		<edge from-layer="1405" from-port="1" to-layer="1407" to-port="0" />
		<edge from-layer="1406" from-port="0" to-layer="1407" to-port="1" />
		<edge from-layer="1407" from-port="2" to-layer="1408" to-port="1" />
		<edge from-layer="1408" from-port="2" to-layer="1410" to-port="0" />
		<edge from-layer="1409" from-port="0" to-layer="1410" to-port="1" />
		<edge from-layer="1410" from-port="2" to-layer="1411" to-port="1" />
		<edge from-layer="1411" from-port="2" to-layer="1412" to-port="0" />
		<edge from-layer="1412" from-port="2" to-layer="1413" to-port="2" />
		<edge from-layer="1413" from-port="3" to-layer="1416" to-port="0" />
		<edge from-layer="1414" from-port="0" to-layer="1416" to-port="1" />
		<edge from-layer="1415" from-port="0" to-layer="1416" to-port="2" />
		<edge from-layer="1416" from-port="3" to-layer="1418" to-port="0" />
		<edge from-layer="1416" from-port="4" to-layer="1466" to-port="0" />
		<edge from-layer="1417" from-port="0" to-layer="1418" to-port="1" />
		<edge from-layer="1418" from-port="2" to-layer="1420" to-port="0" />
		<edge from-layer="1419" from-port="0" to-layer="1420" to-port="1" />
		<edge from-layer="1420" from-port="2" to-layer="1421" to-port="0" />
		<edge from-layer="1421" from-port="1" to-layer="1426" to-port="0" />
		<edge from-layer="1422" from-port="0" to-layer="1426" to-port="1" />
		<edge from-layer="1423" from-port="0" to-layer="1426" to-port="2" />
		<edge from-layer="1424" from-port="0" to-layer="1426" to-port="3" />
		<edge from-layer="1425" from-port="0" to-layer="1426" to-port="4" />
		<edge from-layer="1426" from-port="5" to-layer="1431" to-port="0" />
		<edge from-layer="1427" from-port="0" to-layer="1428" to-port="0" />
		<edge from-layer="1428" from-port="1" to-layer="1430" to-port="0" />
		<edge from-layer="1429" from-port="0" to-layer="1430" to-port="1" />
		<edge from-layer="1430" from-port="2" to-layer="1431" to-port="1" />
		<edge from-layer="1431" from-port="2" to-layer="1433" to-port="0" />
		<edge from-layer="1432" from-port="0" to-layer="1433" to-port="1" />
		<edge from-layer="1433" from-port="2" to-layer="1448" to-port="0" />
		<edge from-layer="1433" from-port="2" to-layer="1437" to-port="0" />
		<edge from-layer="1434" from-port="0" to-layer="1437" to-port="1" />
		<edge from-layer="1435" from-port="0" to-layer="1437" to-port="2" />
		<edge from-layer="1436" from-port="0" to-layer="1437" to-port="3" />
		<edge from-layer="1437" from-port="4" to-layer="1438" to-port="1" />
		<edge from-layer="1438" from-port="2" to-layer="1443" to-port="0" />
		<edge from-layer="1438" from-port="2" to-layer="1462" to-port="1" />
		<edge from-layer="1439" from-port="0" to-layer="1443" to-port="1" />
		<edge from-layer="1440" from-port="0" to-layer="1443" to-port="2" />
		<edge from-layer="1441" from-port="0" to-layer="1443" to-port="3" />
		<edge from-layer="1442" from-port="0" to-layer="1443" to-port="4" />
		<edge from-layer="1443" from-port="5" to-layer="1459" to-port="0" />
		<edge from-layer="1444" from-port="0" to-layer="1448" to-port="1" />
		<edge from-layer="1445" from-port="0" to-layer="1448" to-port="2" />
		<edge from-layer="1446" from-port="0" to-layer="1448" to-port="3" />
		<edge from-layer="1447" from-port="0" to-layer="1448" to-port="4" />
		<edge from-layer="1448" from-port="5" to-layer="1452" to-port="0" />
		<edge from-layer="1449" from-port="0" to-layer="1452" to-port="1" />
		<edge from-layer="1450" from-port="0" to-layer="1452" to-port="2" />
		<edge from-layer="1451" from-port="0" to-layer="1452" to-port="3" />
		<edge from-layer="1452" from-port="4" to-layer="1453" to-port="1" />
		<edge from-layer="1453" from-port="2" to-layer="1458" to-port="0" />
		<edge from-layer="1453" from-port="2" to-layer="1462" to-port="0" />
		<edge from-layer="1454" from-port="0" to-layer="1458" to-port="1" />
		<edge from-layer="1455" from-port="0" to-layer="1458" to-port="2" />
		<edge from-layer="1456" from-port="0" to-layer="1458" to-port="3" />
		<edge from-layer="1457" from-port="0" to-layer="1458" to-port="4" />
		<edge from-layer="1458" from-port="5" to-layer="1459" to-port="1" />
		<edge from-layer="1459" from-port="2" to-layer="1461" to-port="0" />
		<edge from-layer="1460" from-port="0" to-layer="1461" to-port="1" />
		<edge from-layer="1461" from-port="2" to-layer="1463" to-port="0" />
		<edge from-layer="1462" from-port="2" to-layer="1463" to-port="1" />
		<edge from-layer="1463" from-port="2" to-layer="1465" to-port="0" />
		<edge from-layer="1464" from-port="0" to-layer="1465" to-port="1" />
		<edge from-layer="1465" from-port="2" to-layer="1582" to-port="0" />
		<edge from-layer="1466" from-port="1" to-layer="1582" to-port="1" />
		<edge from-layer="1467" from-port="0" to-layer="1468" to-port="0" />
		<edge from-layer="1468" from-port="1" to-layer="1470" to-port="0" />
		<edge from-layer="1469" from-port="0" to-layer="1470" to-port="1" />
		<edge from-layer="1470" from-port="2" to-layer="1471" to-port="1" />
		<edge from-layer="1471" from-port="2" to-layer="1473" to-port="0" />
		<edge from-layer="1472" from-port="0" to-layer="1473" to-port="1" />
		<edge from-layer="1473" from-port="2" to-layer="1474" to-port="0" />
		<edge from-layer="1474" from-port="1" to-layer="1479" to-port="0" />
		<edge from-layer="1475" from-port="0" to-layer="1479" to-port="1" />
		<edge from-layer="1476" from-port="0" to-layer="1479" to-port="2" />
		<edge from-layer="1477" from-port="0" to-layer="1479" to-port="3" />
		<edge from-layer="1478" from-port="0" to-layer="1479" to-port="4" />
		<edge from-layer="1479" from-port="5" to-layer="1484" to-port="0" />
		<edge from-layer="1480" from-port="0" to-layer="1481" to-port="0" />
		<edge from-layer="1481" from-port="1" to-layer="1483" to-port="0" />
		<edge from-layer="1482" from-port="0" to-layer="1483" to-port="1" />
		<edge from-layer="1483" from-port="2" to-layer="1484" to-port="1" />
		<edge from-layer="1484" from-port="2" to-layer="1486" to-port="0" />
		<edge from-layer="1485" from-port="0" to-layer="1486" to-port="1" />
		<edge from-layer="1486" from-port="2" to-layer="1487" to-port="0" />
		<edge from-layer="1487" from-port="1" to-layer="1492" to-port="0" />
		<edge from-layer="1488" from-port="0" to-layer="1492" to-port="1" />
		<edge from-layer="1489" from-port="0" to-layer="1492" to-port="2" />
		<edge from-layer="1490" from-port="0" to-layer="1492" to-port="3" />
		<edge from-layer="1491" from-port="0" to-layer="1492" to-port="4" />
		<edge from-layer="1492" from-port="5" to-layer="1497" to-port="0" />
		<edge from-layer="1493" from-port="0" to-layer="1494" to-port="0" />
		<edge from-layer="1494" from-port="1" to-layer="1496" to-port="0" />
		<edge from-layer="1495" from-port="0" to-layer="1496" to-port="1" />
		<edge from-layer="1496" from-port="2" to-layer="1497" to-port="1" />
		<edge from-layer="1497" from-port="2" to-layer="1499" to-port="0" />
		<edge from-layer="1498" from-port="0" to-layer="1499" to-port="1" />
		<edge from-layer="1499" from-port="2" to-layer="1501" to-port="0" />
		<edge from-layer="1500" from-port="0" to-layer="1501" to-port="1" />
		<edge from-layer="1500" from-port="0" to-layer="1535" to-port="1" />
		<edge from-layer="1500" from-port="0" to-layer="1569" to-port="1" />
		<edge from-layer="1500" from-port="0" to-layer="1581" to-port="1" />
		<edge from-layer="1501" from-port="2" to-layer="1570" to-port="0" />
		<edge from-layer="1502" from-port="0" to-layer="1503" to-port="0" />
		<edge from-layer="1503" from-port="1" to-layer="1505" to-port="0" />
		<edge from-layer="1504" from-port="0" to-layer="1505" to-port="1" />
		<edge from-layer="1505" from-port="2" to-layer="1506" to-port="1" />
		<edge from-layer="1506" from-port="2" to-layer="1508" to-port="0" />
		<edge from-layer="1507" from-port="0" to-layer="1508" to-port="1" />
		<edge from-layer="1508" from-port="2" to-layer="1509" to-port="0" />
		<edge from-layer="1509" from-port="1" to-layer="1514" to-port="0" />
		<edge from-layer="1510" from-port="0" to-layer="1514" to-port="1" />
		<edge from-layer="1511" from-port="0" to-layer="1514" to-port="2" />
		<edge from-layer="1512" from-port="0" to-layer="1514" to-port="3" />
		<edge from-layer="1513" from-port="0" to-layer="1514" to-port="4" />
		<edge from-layer="1514" from-port="5" to-layer="1519" to-port="0" />
		<edge from-layer="1515" from-port="0" to-layer="1516" to-port="0" />
		<edge from-layer="1516" from-port="1" to-layer="1518" to-port="0" />
		<edge from-layer="1517" from-port="0" to-layer="1518" to-port="1" />
		<edge from-layer="1518" from-port="2" to-layer="1519" to-port="1" />
		<edge from-layer="1519" from-port="2" to-layer="1521" to-port="0" />
		<edge from-layer="1520" from-port="0" to-layer="1521" to-port="1" />
		<edge from-layer="1521" from-port="2" to-layer="1522" to-port="0" />
		<edge from-layer="1522" from-port="1" to-layer="1527" to-port="0" />
		<edge from-layer="1523" from-port="0" to-layer="1527" to-port="1" />
		<edge from-layer="1524" from-port="0" to-layer="1527" to-port="2" />
		<edge from-layer="1525" from-port="0" to-layer="1527" to-port="3" />
		<edge from-layer="1526" from-port="0" to-layer="1527" to-port="4" />
		<edge from-layer="1527" from-port="5" to-layer="1532" to-port="0" />
		<edge from-layer="1528" from-port="0" to-layer="1529" to-port="0" />
		<edge from-layer="1529" from-port="1" to-layer="1531" to-port="0" />
		<edge from-layer="1530" from-port="0" to-layer="1531" to-port="1" />
		<edge from-layer="1531" from-port="2" to-layer="1532" to-port="1" />
		<edge from-layer="1532" from-port="2" to-layer="1534" to-port="0" />
		<edge from-layer="1533" from-port="0" to-layer="1534" to-port="1" />
		<edge from-layer="1534" from-port="2" to-layer="1535" to-port="0" />
		<edge from-layer="1535" from-port="2" to-layer="1570" to-port="1" />
		<edge from-layer="1536" from-port="0" to-layer="1537" to-port="0" />
		<edge from-layer="1537" from-port="1" to-layer="1539" to-port="0" />
		<edge from-layer="1538" from-port="0" to-layer="1539" to-port="1" />
		<edge from-layer="1539" from-port="2" to-layer="1540" to-port="1" />
		<edge from-layer="1540" from-port="2" to-layer="1542" to-port="0" />
		<edge from-layer="1541" from-port="0" to-layer="1542" to-port="1" />
		<edge from-layer="1542" from-port="2" to-layer="1543" to-port="0" />
		<edge from-layer="1543" from-port="1" to-layer="1548" to-port="0" />
		<edge from-layer="1544" from-port="0" to-layer="1548" to-port="1" />
		<edge from-layer="1545" from-port="0" to-layer="1548" to-port="2" />
		<edge from-layer="1546" from-port="0" to-layer="1548" to-port="3" />
		<edge from-layer="1547" from-port="0" to-layer="1548" to-port="4" />
		<edge from-layer="1548" from-port="5" to-layer="1553" to-port="0" />
		<edge from-layer="1549" from-port="0" to-layer="1550" to-port="0" />
		<edge from-layer="1550" from-port="1" to-layer="1552" to-port="0" />
		<edge from-layer="1551" from-port="0" to-layer="1552" to-port="1" />
		<edge from-layer="1552" from-port="2" to-layer="1553" to-port="1" />
		<edge from-layer="1553" from-port="2" to-layer="1555" to-port="0" />
		<edge from-layer="1554" from-port="0" to-layer="1555" to-port="1" />
		<edge from-layer="1555" from-port="2" to-layer="1556" to-port="0" />
		<edge from-layer="1556" from-port="1" to-layer="1561" to-port="0" />
		<edge from-layer="1557" from-port="0" to-layer="1561" to-port="1" />
		<edge from-layer="1558" from-port="0" to-layer="1561" to-port="2" />
		<edge from-layer="1559" from-port="0" to-layer="1561" to-port="3" />
		<edge from-layer="1560" from-port="0" to-layer="1561" to-port="4" />
		<edge from-layer="1561" from-port="5" to-layer="1566" to-port="0" />
		<edge from-layer="1562" from-port="0" to-layer="1563" to-port="0" />
		<edge from-layer="1563" from-port="1" to-layer="1565" to-port="0" />
		<edge from-layer="1564" from-port="0" to-layer="1565" to-port="1" />
		<edge from-layer="1565" from-port="2" to-layer="1566" to-port="1" />
		<edge from-layer="1566" from-port="2" to-layer="1568" to-port="0" />
		<edge from-layer="1567" from-port="0" to-layer="1568" to-port="1" />
		<edge from-layer="1568" from-port="2" to-layer="1569" to-port="0" />
		<edge from-layer="1569" from-port="2" to-layer="1570" to-port="2" />
		<edge from-layer="1570" from-port="3" to-layer="1572" to-port="0" />
		<edge from-layer="1571" from-port="0" to-layer="1572" to-port="1" />
		<edge from-layer="1572" from-port="2" to-layer="1576" to-port="0" />
		<edge from-layer="1573" from-port="0" to-layer="1576" to-port="1" />
		<edge from-layer="1574" from-port="0" to-layer="1576" to-port="2" />
		<edge from-layer="1575" from-port="0" to-layer="1576" to-port="3" />
		<edge from-layer="1576" from-port="4" to-layer="1578" to-port="0" />
		<edge from-layer="1577" from-port="0" to-layer="1578" to-port="1" />
		<edge from-layer="1578" from-port="2" to-layer="1580" to-port="0" />
		<edge from-layer="1579" from-port="0" to-layer="1580" to-port="1" />
		<edge from-layer="1580" from-port="2" to-layer="1581" to-port="0" />
		<edge from-layer="1581" from-port="2" to-layer="1582" to-port="2" />
		<edge from-layer="1582" from-port="3" to-layer="1583" to-port="0" />
	</edges>
	<rt_info>
		<MO_version value="2024.0.0-14509-34caeefd078-releases/2024/0" />
		<Runtime_version value="2024.0.0-14509-34caeefd078-releases/2024/0" />
		<conversion_parameters>
			<framework value="onnx" />
			<input_model value="DIR\last.onnx" />
			<is_python_api_used value="True" />
			<model_name value="YOLOv8_large_MobileNetV3-pose" />
		</conversion_parameters>
		<framework>
			<author value="Ultralytics" />
			<batch value="1" />
			<date value="2024-05-16T18:55:36.552941" />
			<description value="Ultralytics YOLOv8_large_MobileNetV3-pose model trained on C:\Users\ssq13\Desktop\yolov8_pose_mobilenetv3\ultralytics\ultralytics\cfg\datasets\coco8-pose.yaml" />
			<imgsz value="[416, 416]" />
			<kpt_shape value="[4, 2]" />
			<license value="AGPL-3.0 https://ultralytics.com/license" />
			<names value="{0: 'B', 1: 'R'}" />
			<stride value="32" />
			<task value="pose" />
			<version value="8.1.5" />
		</framework>
		<legacy_frontend value="False" />
		<model_info>
			<iou_threshold value="0.7" />
			<labels value="B R" />
			<model_type value="YOLOv8" />
			<pad_value value="114" />
			<resize_type value="fit_to_window_letterbox" />
			<reverse_input_channels value="YES" />
			<scale_values value="255" />
		</model_info>
		<nncf>
			<friendly_names_were_updated value="True" />
			<quantization>
				<advanced_parameters value="{}" />
				<fast_bias_correction value="True" />
				<ignored_scope>
					<names value="[]" />
					<patterns value="[]" />
					<types value="['Multiply', 'Subtract', 'Sigmoid']" />
					<validate value="True" />
				</ignored_scope>
				<model_type value="None" />
				<preset value="QuantizationPreset.MIXED" />
				<subset_size value="300" />
				<target_device value="ANY" />
			</quantization>
		</nncf>
	</rt_info>
</net>
